model/mlp.pt (torch, 9797 bytes, 10 tensors)

network.0.weight f4 [10, 108]
0	0xbf11092d	-0.56654626
1	0x3e28c42c	0.16481084
2	0x3dfb794b	0.12278994
3	0x3ec51026	0.38488883
4	0x3d5c9590	0.05385357
5	0xbd7dd248	-0.061968118
6	0x3f079af9	0.52970845
7	0xbe6700ab	-0.22558849
8	0xbdbde110	-0.09271443
9	0x3f735fc2	0.9506799
10	0x3de654c2	0.11246635
11	0xbe2feaba	-0.17179385
12	0xbf4e7512	-0.80647385
13	0x3e9e4195	0.3090941
14	0x3f218490	0.630929
15	0x3ee89e1d	0.4543313
16	0xbf0b4af3	-0.5441124
17	0xbedb1c7c	-0.4279517
18	0x3ee64b85	0.44979492
19	0x3e76f1f3	0.24115734
20	0x3e06a925	0.13150461
21	0x3e2dc33e	0.1696901
22	0xbe85d523	-0.26139173
23	0xbea148ad	-0.3150076
24	0x3dcc8fb6	0.09988348
25	0x3d06adc0	0.032880545
26	0x3dd3063f	0.10303926
27	0xbe9a5802	-0.3014527
28	0x40336e46	2.8036056
29	0x3f556f90	0.83373356
30	0x3e72708a	0.23675743
31	0x3dcbb327	0.0994628
32	0xbd85d823	-0.065353654
33	0xbe4a7d29	-0.19774307
34	0x3f093e05	0.5361026
35	0x3bc433ac	0.005987605
36	0xbe89e90f	-0.26935622
37	0x3f69bc1e	0.9130267
38	0x3f09d655	0.5384267
39	0x3e8cb937	0.27485058
40	0x3f8d144d	1.102182
41	0xbde47fc4	-0.11157182
42	0x3dfeb2c3	0.1243644
43	0x3ed756a8	0.420583
44	0x3ed84a51	0.422442
45	0x3eb45c60	0.35226727
46	0xbf0cac21	-0.5495015
47	0x3eb54999	0.35407713
48	0xbcc75a47	-0.02433504
49	0xbe86238f	-0.26199004
50	0x3d276215	0.040865023
51	0xbf251cdd	-0.64497167
52	0x3e488189	0.19580664
53	0x3e64e587	0.22353183
54	0xbe31fd62	-0.17381814
55	0x3f3c4769	0.73546463
56	0xbd5bfeef	-0.05370992
57	0xbea40409	-0.3203433
58	0x3e1d19e1	0.15341903
59	0xbef16653	-0.4714838
60	0xbee3e4ac	-0.445104
61	0x3edc7b41	0.43062785
62	0x3d289631	0.04115886
63	0xbe08e074	-0.13366872
64	0xbe5ad500	-0.21370316
65	0xbdc601cd	-0.09668312
66	0x3e19df8a	0.1502668
67	0xbe424e9c	-0.189753
68	0xbe113ab1	-0.14182545
69	0x3e830e73	0.2559696
70	0x3f4ac916	0.7921308
71	0x3e6b764a	0.22994342
72	0x3f3e93d1	0.744443
73	0x3ebb3afe	0.36568445
74	0x3f8788df	1.0588645
75	0x3c973cf7	0.018461687
76	0x3f0edf09	0.55809075
77	0xbea1d8e0	-0.31610775
78	0xbeaac788	-0.33355355
79	0xbf93c302	-1.1543887
80	0x3ee9a97f	0.45637128
81	0x3f04f00f	0.519288
82	0x3fb040b5	1.3769747
83	0xbf12276b	-0.570914
84	0x3fb6f3f2	1.4293196
85	0xbf163ad1	-0.58683497
86	0x3ed55013	0.41662654
87	0x3f29da68	0.66348886
88	0x3f3c10cc	0.7346313
89	0xbf1c068b	-0.60947484
90	0x3ea3ab3f	0.31966588
91	0xbe8ffd44	-0.28122914
92	0xbd457c1e	-0.04821407
93	0x3e925fb6	0.28588647
94	0x3fbb7b68	1.4647036
95	0x3e47e6ea	0.1952168
96	0x3dba6202	0.09100725
97	0xbead4f2b	-0.33849463
98	0x3f255293	0.64579123
99	0x3fa8bf8f	1.3183459
100	0x3f224601	0.6338807
101	0x3fc081bf	1.5039595
102	0x3edb6bac	0.42855585
103	0xbee550bc	-0.44788158
104	0xbe35279b	-0.1769089
105	0x3e1109e0	0.14163923
106	0x3e5bb148	0.21454346
107	0xbf0a407b	-0.5400464
108	0xbf363654	-0.7117665
109	0xbe03322e	-0.12812111
110	0x3d5e220d	0.054231692
111	0x3da73fc3	0.081664585
112	0x3d4afa7a	0.04955528
113	0xbe1ab527	-0.15108167
114	0xbe80a0cc	-0.25122678
115	0x3e585734	0.21127015
116	0xbe293cc9	-0.16527094
117	0x3f379ea6	0.71726453
118	0xbd0598f8	-0.032616585
119	0x3ed858dc	0.42255294
120	0x3de4bbef	0.11168658
121	0x3e18d789	0.1492597
122	0x3f809257	1.0044659
123	0xbee46212	-0.44606072
124	0x3e670250	0.22559476
125	0xbe78f38b	-0.24311654
126	0x3f914758	1.1349897
127	0xbeb9c6f4	-0.36284602
128	0xbef68032	-0.4814468
129	0xbdec66d8	-0.115430534
130	0x3eeb385c	0.45941436
131	0x3e2876eb	0.16451614
132	0x3c03eed3	0.008052546
133	0xbeefc8a5	-0.46832767
134	0x3df44963	0.1192806
135	0x3e2c3cab	0.16820018
136	0x4027d6ab	2.6224773
137	0xbf05545c	-0.5208185
138	0x3e524bef	0.20536779
139	0x3e87d137	0.26526806
140	0x3e1772ed	0.14789934
141	0xbe652af5	-0.22379668
142	0x3dbce548	0.092234194
143	0x3de8859c	0.11353609
144	0x3f16e6e8	0.58946085
145	0xbed7b4de	-0.42130178
146	0xbe3972e6	-0.18110237
147	0xbede6378	-0.43435264
148	0x3f587ff9	0.8457027
149	0x3e3dbd83	0.18529324
150	0x3e2a548a	0.16633812
151	0xbe8ba0d5	-0.27271143
152	0x3f171b4d	0.5902603
153	0x3a96054e	0.0011445673
154	0x3db17c52	0.0866629
155	0x3ecb1125	0.39661518
156	0x3d2055c5	0.039144296
157	0x3c4f3962	0.0126479585
158	0xbec215d3	-0.37907276
159	0x3e6bec18	0.23039281
160	0x3f1f9810	0.62341404
161	0x3dd937b4	0.10606328
162	0xbd9aa7fd	-0.075515725
163	0xbe9e6458	-0.3093593
164	0x3e955150	0.291636
165	0x3dc1c6b6	0.09461729
166	0xbe2774d6	-0.16353163
167	0xbf822d94	-1.0170159
168	0xbd88f63b	-0.0668759
169	0x3e195cdb	0.14976828
170	0x3f06d73f	0.5267219
171	0xbc90b8d4	-0.017666258
172	0xbd5001d5	-0.050782997
173	0x3d59ffe2	0.053222544
174	0xbd0d2216	-0.034456335
175	0x3eca2677	0.3948247
176	0x3e29e0a7	0.16589604
177	0x3edb6bfc	0.42855823
178	0x3e208606	0.15676126
179	0xbf20a2da	-0.6274849
180	0x3f396a76	0.7242807
181	0x3f491afb	0.78556794
182	0x3ebbd13f	0.3668308
183	0xbdb320dc	-0.08746502
184	0xbf8ac57a	-1.0841515
185	0x3f28433d	0.657276
186	0x3ee87e57	0.4540889
187	0xbf43e7a6	-0.7652534
188	0x3e905543	0.2819005
189	0x3f1bea4d	0.6090439
190	0x3f8bf2a1	1.093342
191	0xbe823188	-0.25428414
192	0x3ed8b0ea	0.42322475
193	0xbf8f9173	-1.1216263
194	0xbe958544	-0.29203236
195	0x3e966b1f	0.29378602
196	0x3f04c41a	0.5186173
197	0xbe871b57	-0.26388046
198	0xbc4d5b15	-0.012533923
199	0x3fe97cb2	1.8241179
200	0xbc98921d	-0.01862436
201	0xbe20f77d	-0.1571941
202	0x3fb101d3	1.3828682
203	0xbf111da7	-0.5668587
204	0x3d82c677	0.063855104
205	0x3f5851c1	0.84499747
206	0xbf9fdb1b	-1.2488741
207	0x3ddcd7a0	0.10783315
208	0x3f14d49f	0.58136934
209	0xbdc66faf	-0.09689271
210	0x3ebe55b1	0.37174752
211	0xbf16db00	-0.5892792
212	0x3eda83a0	0.42678547
213	0x3ddd0e77	0.107937746
214	0xbd333f8b	-0.04376177
215	0xbf00e564	-0.5035002
216	0xbdf7834b	-0.12085589
217	0x3c9446ce	0.018100169
218	0x3e8ee4d0	0.27908945
219	0xbe847295	-0.2586867
220	0x3e3f153f	0.18660448
221	0x3d37c4ab	0.04486529
222	0xbde6c61a	-0.112682536
223	0x3f479d6d	0.7797459
224	0x3d190a45	0.03736331
225	0xbf2d1153	-0.6760456
226	0x3d9c1535	0.076212324
227	0x3d9fb5ed	0.077983715
228	0x3c112961	0.008859963
229	0xbe9aa87a	-0.30206662
230	0xbf319337	-0.6936526
231	0x3d3e9a9b	0.046534162
232	0xbf8192c9	-1.012292
233	0xbddd86bb	-0.108167134
234	0x3d8e6f91	0.06954873
235	0xbe3e3db2	-0.18578222
236	0xbed3a41d	-0.41336146
237	0xbeb879a1	-0.36030295
238	0x3ea064de	0.31326956
239	0x3d6ecc6b	0.058300417
240	0x3e6a0e03	0.22856908
241	0xbd415339	-0.047198508
242	0xbe406d96	-0.18791804
243	0xbe270463	-0.16310267
244	0xbf675044	-0.9035685
245	0x3d19ee1e	0.037580602
246	0x3ec641b2	0.38721997
247	0xbe0882f8	-0.1333121
248	0x3f053dd7	0.52047485
249	0x3ed9a889	0.42511395
250	0xbdd65f48	-0.10467392
251	0xbe9d9a54	-0.30781806
252	0xbf185932	-0.595111
253	0x3d252c03	0.040325176
254	0xbc879e40	-0.016554952
255	0xbeda3b29	-0.4262326

network.0.bias f4 [10]
0	0xbe4c8dd4	-0.19975978
1	0x3d94c716	0.07264535
2	0x3e016236	0.12635121
3	0x3e3a630d	0.18201847
4	0x3e7e8b19	0.24857749
5	0xbdd8eb20	-0.105917215
6	0x3e760dcc	0.240287
7	0x3deb8e79	0.11501784
8	0xbdcbdbb3	-0.09954014
9	0x3d080343	0.033206236

network.2.weight f4 [10, 10]
0	0x3f44e1b2	0.76906884
1	0x3e4eed01	0.20207597
2	0xbf238b09	-0.63884026
3	0x3e451263	0.19245295
4	0xbee6f6d3	-0.45110187
5	0x3f59c97d	0.8507307
6	0xbeacf555	-0.33780923
7	0xbe2dce41	-0.16973211
8	0x3e695246	0.22785291
9	0xbf555194	-0.83327603
10	0x3f6062d0	0.87650776
11	0x3e703ec9	0.2346145
12	0xbf362e93	-0.71164817
13	0x3e638b92	0.2222121
14	0xbf03e17c	-0.51515937
15	0x3f75268d	0.9576195
16	0xbec12deb	-0.37730345
17	0xbe3a7c95	-0.18211587
18	0x3e78f55d	0.24312349
19	0xbf5a2e56	-0.85226953
20	0xbf23032e	-0.63676727
21	0xbf2f4928	-0.68471
22	0x3e7f95c1	0.2495947
23	0xbe9da20b	-0.3078769
24	0x3ec78aaf	0.38972995
25	0xbdfe2741	-0.12409831
26	0x3dc3c649	0.09559304
27	0xbeb346d4	-0.35014975
28	0xbeff1ef3	-0.498283
29	0x3fbd8ccc	1.4808593
30	0x3f4e135d	0.80498296
31	0x3e60155d	0.2188315
32	0xbf23cba4	-0.63982606
33	0x3e4dad84	0.20085722
34	0xbeeb569b	-0.45964512
35	0x3f667a4a	0.9003035
36	0xbeb3192a	-0.34980136
37	0xbe3b666f	-0.18300794
38	0x3e7003b1	0.23438908
39	0xbf5111f2	-0.8166801
40	0xbeccdfe1	-0.40014556
41	0xbed86a23	-0.42268476
42	0x3e15b010	0.14617944
43	0xbe65e55a	-0.22450772
44	0x3e81f473	0.25381812
45	0xbd849cf2	-0.064752474
46	0x3d0e1e72	0.034697004
47	0xbe675b27	-0.22593366
48	0xbea33cad	-0.3188223
49	0x3f6eec88	0.9332967
50	0xbf207635	-0.6268037
51	0xbf2c759a	-0.67366946
52	0x3e5d7870	0.21627975
53	0xbeac49fe	-0.33650202
54	0x3ec02508	0.37528253
55	0xbdb8b736	-0.0901932
56	0x3d5ea246	0.054353975
57	0xbeb76fa0	-0.3582735
58	0xbef2b5d0	-0.47404337
59	0x3fb7bee7	1.4355134
60	0xbef33d46	-0.47507685
61	0xbee2cfa8	-0.44299054
62	0x3e2c0c86	0.16801652
63	0xbe495d54	-0.19664508
64	0x3e88bb08	0.26705194
65	0xbdcb31b9	-0.09921593
66	0x3dcd0aad	0.10011802
67	0xbe6b7494	-0.2299369
68	0xbeb17f66	-0.3466751
69	0x3f8c170a	1.0944531
70	0xbf13e584	-0.5777209
71	0xbf1555af	-0.5833387
72	0x3e4ba7b8	0.19888198
73	0xbe932b96	-0.2874419
74	0x3ea7eeeb	0.32799467
75	0xbdad4151	-0.08459724
76	0x3d51d936	0.05123254
77	0xbe9e7382	-0.309475
78	0xbed03ffb	-0.40673813
79	0x3fabd413	1.3424095
80	0x3f5682b7	0.83793205
81	0x3e6c0b05	0.23051079
82	0xbf2ada79	-0.6673961
83	0x3e43a868	0.1910721
84	0xbef820e2	-0.48462588
85	0x3f6c4554	0.92293286
86	0xbeb5e53b	-0.3552645
87	0xbe3ea70c	-0.18618411
88	0x3e6cad85	0.23113067
89	0xbf5dc165	-0.8662322
90	0xbf0aa1c2	-0.5415307
91	0xbf0cc531	-0.5498839
92	0x3e4572b0	0.19282031
93	0xbe8be498	-0.2732284
94	0x3ea412a7	0.3204548
95	0xbdd65179	-0.104647584
96	0x3d731fd5	0.05935653
97	0xbe9222f5	-0.28542295
98	0xbeca361f	-0.39494416
99	0x3f9f9037	1.2465886

network.2.bias f4 [10]
0	0x3e625538	0.22102821
1	0x3e6e6d58	0.23283899
2	0x3d8dd479	0.069252916
3	0x3e68ecc0	0.22746563
4	0x3dc2f272	0.09518899
5	0x3e04ffbc	0.1298818
6	0x3c50884a	0.012727806
7	0x3ddbfc15	0.1074144
8	0x3e5f928b	0.21833245
9	0x3dc06ce3	0.093957685

network.5.weight f4 [10, 10]
0	0x3f6b7272	0.91971505
1	0x3f53f417	0.82794327
2	0xbec7c237	-0.39015362
3	0x3f5f22f5	0.87162715
4	0xbead4b1b	-0.33846363
5	0xbea9e7a3	-0.33184537
6	0xbf46a0d2	-0.7758914
7	0xbea279b8	-0.3173349
8	0x3f63b58d	0.889489
9	0xbeeb1f27	-0.45922205
10	0x3f56e2ae	0.83939636
11	0x3f486f4e	0.7829484
12	0xbebe823e	-0.37208742
13	0x3f54a97c	0.8307111
14	0xbefd12d3	-0.49428424
15	0xbea7cab0	-0.32771826
16	0xbecb249f	-0.39676377
17	0xbe757df1	-0.23973824
18	0x3f500610	0.8125925
19	0xbead9078	-0.33899283
20	0xbf070909	-0.5274816
21	0xbef4556b	-0.4772142
22	0xbdfa8524	-0.12232426
23	0xbf016e94	-0.50559354
24	0x3f74b398	0.9558654
25	0xbe20792a	-0.1567122
26	0xbe4887e2	-0.19583085
27	0xbda7f20f	-0.08200466
28	0xbf0dafe6	-0.55346525
29	0x3f394f6d	0.7238682
30	0xbf0a9ffe	-0.5415038
31	0xbf3431ec	-0.70388675
32	0x3edff988	0.43745065
33	0xbf0dcf09	-0.55394036
34	0x3f08893e	0.53334415
35	0x3ee86339	0.453882
36	0x3f306f44	0.6891978
37	0x3f0769ed	0.52896005
38	0xbf07ebaa	-0.5309397
39	0x3ebf9ce1	0.37424377
40	0xbf57271d	-0.8404406
41	0xbf3b2923	-0.73109645
42	0x3f060bf0	0.52361965
43	0xbf3dab76	-0.74089754
44	0x3f13fe65	0.5781005
45	0x3f02522b	0.5090663
46	0x3f30d337	0.6907229
47	0x3f1762fb	0.5913541
48	0xbf318864	-0.6934874
49	0x3ecdd6fd	0.40203086
50	0xbf750147	-0.95705074
51	0xbf50a007	-0.8149418
52	0x3f0a078e	0.5391778
53	0xbf6d57ca	-0.9271208
54	0x3f173238	0.59061
55	0x3f02c74f	0.5108537
56	0x3f3f8b50	0.7482195
57	0x3f0e0f9a	0.55492556
58	0xbf7c564b	-0.9856917
59	0x3ed40555	0.41410318
60	0x3f5429bb	0.82876176
61	0x3f45ae59	0.7721916
62	0xbe97f385	-0.29677978
63	0x3f4bb94f	0.79579633
64	0xbea974c7	-0.33096907
65	0xbeafd077	-0.34338734
66	0xbf01b39c	-0.5066469
67	0xbe7cacdf	-0.2467532
68	0x3f4ea737	0.807239
69	0xbebccee6	-0.368766
70	0x3f74c650	0.956151
71	0x3f6cdd28	0.9252496
72	0xbe98b94c	-0.2982887
73	0x3f6f7881	0.9354325
74	0xbe452579	-0.19252576
75	0xbea0e4b8	-0.314245
76	0xbed0053a	-0.40628988
77	0xbea6a343	-0.32546434
78	0x3f64769d	0.8924349
79	0xbe81f587	-0.25382635
80	0xbf55927c	-0.8342664
81	0xbf2108f1	-0.6290427
82	0x3f00390a	0.50087035
83	0xbf06a348	-0.525929
84	0x3f15d49a	0.5852753
85	0x3eeac47c	0.4585303
86	0x3f2d4e65	0.67697746
87	0x3f136f64	0.57591844
88	0xbf60ed4b	-0.8786208
89	0x3ede3d0b	0.43405947
90	0xbf34c4cb	-0.7061278
91	0xbf19ea43	-0.6012308
92	0x3f071f17	0.52781814
93	0xbf4b4267	-0.79398197
94	0x3f1fcb92	0.6242
95	0x3f072f12	0.528062
96	0x3f40139b	0.75029916
97	0x3f055651	0.52084833
98	0xbf5b5cd9	-0.8568855
99	0x3eecd770	0.46258116

network.5.bias f4 [10]
0	0xbb5dc484	-0.0033839056
1	0xbb726de9	-0.003699178
2	0xbc1a2f7e	-0.009410737
3	0xbbc9d40a	-0.00615931
4	0xbaf0bccf	-0.0018366816
5	0xbbb3d6c8	-0.0054882504
6	0x3bd5f240	0.0065291226
7	0xb9c8dbed	-0.0003831083
8	0xb93768cf	-0.00017491284
9	0xbc683bbb	-0.014174397

network.8.weight f4 [10, 10]
0	0x3f1330dc	0.5749643
1	0x3f14c228	0.5810876
2	0xbfd65c81	-1.674698
3	0xbfc7103b	-1.5551828
4	0xbf936873	-1.151625
5	0xbfa41096	-1.2817562
6	0x3f126b69	0.57195145
7	0x3f110751	0.5665179
8	0xbfbe435c	-1.4864306
9	0xbfad68eb	-1.3547643
10	0x3f18e0fd	0.59718305
11	0x3f265a8c	0.64981914
12	0xbfc1dc90	-1.5145435
13	0xbfa191f9	-1.2622672
14	0xbfa7e3c0	-1.3116379
15	0xbf87c53e	-1.0607069
16	0x3f1d23d9	0.61382824
17	0x3f1dc1a8	0.6162362
18	0xbfa77e4f	-1.3085421
19	0xbf7f61c5	-0.9975856
20	0x3f2ba923	0.6705496
21	0x3f37d919	0.7181564
22	0xbf753cdb	-0.95795983
23	0xbf206b74	-0.6266396
24	0xbf03b23d	-0.51443845
25	0xbee7d6ec	-0.4528116
26	0x3f214f70	0.63011837
27	0x3f2a2d0e	0.66475
28	0xbf003313	-0.50077933
29	0xbee3a051	-0.4445825
30	0xc0106808	-2.2563496
31	0xc024acfb	-2.573058
32	0x3e973baf	0.29537722
33	0x3e3d2c05	0.18473823
34	0x3e1af665	0.15133055
35	0x3e1d5055	0.15362675
36	0xbff84e51	-1.93989
37	0xbffcea0e	-1.9758928
38	0x3e2c90d2	0.1685212
39	0x3e00a668	0.12563479
40	0x3f556aac	0.83365893
41	0x3f5a15e0	0.8518963
42	0xbfb7c92d	-1.4358269
43	0xbf78ef9e	-0.97240627
44	0xbf691938	-0.91054106
45	0xbf5feb99	-0.8746887
46	0x3f4aa6f9	0.7916103
47	0x3f449b16	0.7679914
48	0xbf713b47	-0.94231075
49	0xbf47b225	-0.780062
50	0xc01b1726	-2.4232879
51	0xc021f0c0	-2.5303192
52	0x3e445361	0.19172432
53	0x3dd479c7	0.1037479
54	0x3db9e07a	0.09076019
55	0x3da5cff8	0.080963075
56	0xc0215603	-2.5208747
57	0xc010bb92	-2.2614484
58	0x3d9769a7	0.073931985
59	0x3da596ad	0.0808538
60	0x3f18c518	0.5967574
61	0x3f33985d	0.7015436
62	0xbfa1c29c	-1.2637515
63	0xbf97ba05	-1.1853644
64	0xbf7b999e	-0.98281276
65	0xbf472e87	-0.7780537
66	0x3f1447ae	0.57921875
67	0x3f0b5626	0.5442833
68	0xbf72b851	-0.94812495
69	0xbf5756e0	-0.84116936
70	0xc028e13b	-2.638747
71	0xc0387c56	-2.8825889
72	0x3e5b620f	0.21424125
73	0x3e0e3589	0.1388761
74	0x3e036c00	0.12834167
75	0x3e183fb2	0.14868048
76	0xc03a6314	-2.9122972
77	0xc02316e5	-2.5482724
78	0x3df86420	0.12128472
79	0x3ddc9329	0.10770256
80	0x3f502063	0.8129942
81	0x3f4feb86	0.81218755
82	0xbf32d435	-0.6985505
83	0xbee4ef18	-0.44713664
84	0xbea645fc	-0.3247527
85	0xbeca41d7	-0.39503357
86	0x3f4a9d99	0.79146725
87	0x3f4122e7	0.7544388
88	0xbeed415e	-0.46338934
89	0xbea48503	-0.3213273
90	0x3f480f73	0.78148574
91	0x3f441ab1	0.7660323
92	0xbfa8e670	-1.3195324
93	0xbf4934c9	-0.7859617
94	0xbf8283aa	-1.0196431
95	0xbf85f47a	-1.0465233
96	0x3f3673c3	0.7127039
97	0x3f2d0fa8	0.67602015
98	0xbf6069e8	-0.876616
99	0xbf463c00	-0.774353

network.8.bias f4 [10]
0	0x3e0c50ca	0.13702694
1	0x3e0806b9	0.13283814
2	0x3e1b48d3	0.15164499
3	0x3b8d9ccf	0.0043216716
4	0x3e3814fe	0.17976758
5	0x3a9a38b4	0.0011766166
6	0x3e0f0ccb	0.13969724
7	0x3b4689b3	0.0030294477
8	0x3e43d7e0	0.19125319
9	0x3e302995	0.17203362

network.11.weight f4 [2, 10]
0	0x3f5873d6	0.8455175
1	0x3f199dba	0.60006297
2	0x3f491eb4	0.78562474
3	0xbe08a686	-0.13344774
4	0x3efdb391	0.4955106
5	0x3c39bbe8	0.011336304
6	0x3ef75f91	0.483151
7	0x3d3671f6	0.044542275
8	0x3f18e253	0.59720343
9	0x3f2b6b7a	0.6696087
10	0xbf1fdd6a	-0.62447226
11	0xbf402664	-0.7505858
12	0xbed8cd1a	-0.4234398
13	0xbca389d9	-0.019963192
14	0xbf051415	-0.5198377
15	0x3e325553	0.17415361
16	0xbf5718b2	-0.8402206
17	0x3e3588e1	0.17727996
18	0xbefc46d2	-0.49272782
19	0xbf0e08d8	-0.55482244

network.11.bias f4 [2]
0	0x3c4af8dc	0.012388434
1	0xbe3751b7	-0.17902265
