model/mlp.pt (torch, 6597 bytes, 10 tensors)

network.0.weight f4 [5, 108]
-0.92799276 -0.012435422 -0.27683848 -1.5430737 -0.15224776 -0.24087605 0.039098002 0.15976532
0.27427128 3.468916 0.020999508 0.12545536 -0.096102655 0.3900785 6.4835916 0.28639752
-0.027286293 0.68613714 -0.045991093 -0.6094259 0.21088552 1.5973818 0.23767221 0.4167611
-0.052430253 -0.7954194 0.008019146 -0.0919173 6.104457 -0.2849504 0.2543542 0.7002383
0.21457314 -0.33376256 -0.1336715 0.4115773 -0.053734303 -2.7095034 0.102539465 0.43743256
4.2566886 0.14663044 -0.201891 0.5058455 0.11986912 0.14973713 0.19703305 8.150197
-0.36721987 -0.5019973 -0.1756494 -0.012230552 0.43100297 0.043834735 0.05189527 -0.28225335
0.8024216 0.0028599543 -0.16547513 0.87019837 -0.11678843 -0.28015277 0.643531 0.106221065
-0.13914192 0.16884096 0.3898731 -0.4262859 0.77028394 0.70287395 2.5465755 -0.8642203
0.88970774 -0.11382602 0.2784033 0.12829487 0.6178446 0.50709456 0.6624383 1.2147639
0.08700215 2.5080845 4.8002396 -0.43161836 0.5342175 0.064901315 -0.1062983 -0.035764836
0.5601875 -0.13038872 0.23718645 0.7555295 -0.020578124 -0.22567396 6.359811 0.83447963
-0.42726862 1.4596146 0.36605558 0.21331947 0.6727083 0.8122917 0.3396508 0.11090402
0.68358445 0.10295808 -0.6043858 -0.3804242 -0.0144272735 -0.12923582 -0.25203794 -1.2404375
-0.21203473 0.0979409 0.21346763 -0.11760845 -0.06620484 3.0359354 -0.04622179 -0.16616829
0.20757392 -0.03799185 5.74624 0.2588657 -0.08791743 -0.7300973 -1.0546535 -3.5583923
-0.34207445 -0.41695398 0.21367843 -0.09974446 -0.13663319 -0.08864472 0.37091115 -0.40521395
5.4764185 -0.66557884 0.31469315 -0.4692055 -1.4328293 0.038360726 0.9173261 -0.09489196
0.34033492 0.09752084 0.3935986 -1.2122445 3.5809996 0.22418691 -0.14740586 0.14362948
0.5887953 0.063731015 0.62327045 3.8379588 -0.053726505 0.17400116 0.1849026 -0.35722935
-0.6754448 -0.12448307 0.42096415 0.79724914 0.5841456 0.13309966 -0.037295293 0.1902184
0.17722201 -0.36734593 -0.51252955 0.12639989 0.18696949 0.010286915 0.25932422 0.012401208
-1.0289581 0.4498716 0.45319963 -0.6118483 -1.0252093 -0.8101911 -1.0890118 0.21708776
-0.4405394 -0.1562982 0.51605016 1.2906867 -0.07699651 2.0515342 3.8745189 -0.2765328
-0.29498965 0.347941 -0.31432986 -1.0430129 -1.0976671 -0.57220185 0.10854261 2.176563
0.20609088 0.18729733 5.1679068 1.1732469 0.38025588 -0.28663975 -0.32716632 0.7025836
-0.8400336 0.35585877 -0.32904968 -0.095235474 1.1098839 0.05624886 1.6474049 0.47099507
-0.1028039 0.038443007 -0.05169942 -2.0483463 -0.33287936 -0.044150386 0.37289798 0.47083127
0.13252525 -0.27666184 -0.09235825 0.3210834 -0.72334 0.00039300194 -1.6767741 -3.7208607
-2.9964178 -1.7784137 -2.9248846 -0.48362288 -0.7196254 -0.99153334 0.09847714 0.05438532
-0.04197793 0.18762359 0.005350917 -0.8313728 -1.0371538 -1.8330922 0.39595786 -1.4548312
0.86528814 0.11605786 3.1629622 -4.2978415 -2.7600534 -2.3809311 0.23422134 0.28328022
00000000: ef90 6dbf f1bd 4bbc c6bd 8dbe 7083 c5bf
00000010: d6e6 1bbe 36a8 76be 3a25 203d 8599 233e
00000020: 496d 8c3e b802 5e40 2907 ac3c 5f77 003e
00000030: 78d1 c4bd 5fb8 c73e 9579 cf40 b2a2 923e
00000040: 8187 dfbc afa6 2f3f 2861 3cbd 5603 1cbf
00000050: 60f2 573e 0277 cc3f 5860 733e b661 d53e
00000060: 1bc1 56bd 9ba0 4bbf bc62 033c 233f bcbd
00000070: b657 c340 05e5 91be b73a 823e d142 333f
00000080: 10b9 5b3e ede2 aabe 2fe1 08be 43ba d23e
00000090: 8018 5cbd 8168 2dc0 3600 d23d 29f7 df3e
000000a0: cb36 8840 4a26 163e 84bc 4ebe 177f 013f
000000b0: f17d f53d b154 193e 08c3 493e 3567 0241
000000c0: 3e04 bcbe e582 00bf 70dd 33be a762 48bc
000000d0: 6cac dc3e 0d8c 333d 2290 543d 8383 90be
000000e0: 816b 4d3f 126e 3b3b 5072 29be 52c5 5e3f
000000f0: c62e efbd 2f70 8fbe 73be 243f 6e8a d93d
00000100: 387b 0ebe a5e4 2c3e 729d c73e 2542 dabe
00000110: 5431 453f 8cef 333f 18fb 2240 8b3d 5dbf
00000120: e3c3 633f 9e1d e9bd e18a 8e3e bb5f 033e
00000130: 102b 1e3f f3d0 013f 8e95 293f 627d 9b3f
00000140: 2f2e b23d 7584 2040 909b 9940 15fd dcbe
00000150: 7ac2 083f fbea 843d ecb2 d9bd 267e 12bd
00000160: 7368 0f3f 9f84 05be 01e1 723e 626a 413f
00000170: 7493 a8bc 1317 67be 9283 cb40 75a0 553f
00000180: f4c2 dabe a7d4 ba3f a36b bb3e 6b70 5a3e
00000190: 9c36 2c3f 59f2 4f3f b6e6 ad3e a621 e33d
000001a0: 64ff 2e3f b0db d23d 07b9 1abf f6c6 c2be
000001b0: 5f60 6cbc 6556 04be 1e0b 81be a8c6 9ebf
000001c0: a21f 59be 3d95 c83d 4297 5a3e b3dc f0bd
000001d0: 6796 87bd c44c 4240 0f53 3dbd 0528 2abe
000001e0: 428e 543e 589d 1bbd 33e1 b740 0c8a 843e
000001f0: 0e0e b4bd a8e7 3abf e3fe 86bf b3bc 63c0
00000200: 6224 afbe fe7a d5be 85ce 5a3e d346 ccbd
00000210: 92e9 0bbe 5d8b b5bd 11e8 bd3e 3478 cfbe
00000220: d23e af40 6063 2abf 761f a13e b43b f0be
00000230: f366 b7bf 2320 1d3d e2d5 6a3f b756 c2bd
00000240: 6140 ae3e 02b9 c73d c185 c93e d42a 9bbf
00000250: 192f 6540 4191 653e 90f1 16be 9b13 133e
00000260: 4abb 163f 6885 823d a78e 1f3f 1ea1 7540
00000270: 5310 5cbd 5c2d 323e 1b57 3d3e c4e6 b6be
00000280: f3e9 2cbf fbf0 febd 9d88 d73e 8518 4c3f
00000290: 918a 153f 474b 083e f3c2 18bd 9dc8 423e
000002a0: b079 353e c414 bcbe 2335 03bf f96e 013e
000002b0: ee74 3f3e 738a 283c 25c6 843e 702e 4b3c
000002c0: e6b4 83bf 9255 e63e c809 e83e 17a2 1cbf
000002d0: 0f3a 83bf af68 4fbf bd64 8bbf 414c 5e3e
000002e0: 618e e1be a30c 20be dd1b 043f 3935 a53f
000002f0: 59b0 9dbd 564c 0340 1ef8 7740 b595 8dbe
00000300: e208 97be 5325 b23e d8ef a0be 7281 85bf
00000310: 5b80 8cbf d27b 12bf 974b de3d cf4c 0b40
00000320: 7d09 533e dfca 3f3e 7e5f a540 f42c 963f
00000330: e6b0 c23e 72c2 92be 5882 a7be 85dc 333f
00000340: 710c 57bf 1f33 b63e 3379 a8be d10a c3bd
00000350: ad10 8e3f 3465 663d 2ade d23f 4426 f13e
00000360: da8a d2bd 6a76 1d3d c5c2 53bd 1b18 03c0
00000370: 2a6f aabe 09d7 34bd 7cec be3e cc10 f13e
00000380: b3b4 073e 9fa6 8dbe 5226 bdbd 0b65 a43e
00000390: cf2c 39bf d40b ce39 89a0 d6bf 9522 6ec0
000003a0: 4fc5 3fc0 0fa3 e3bf 4f31 3bc0 6b9d f7be
000003b0: 5f39 38bf 21d5 7dbf 62ae c93d 24c3 5e3d
000003c0: 0df1 2bbd 6620 403e bf56 af3b d9d4 54bf
000003d0: 75c1 84bf c4a2 eabf fdba ca3e e937 babf
000003e0: 8683 5d3f beaf ed3d f96d 4a40 eb87 89c0
000003f0: b7a4 30c0 2d61 18c0 b8d7 6f3e 1b0a 913e

network.0.bias f4 [5]
0.0918238 0.01916252 0.0009101833 -0.11228932 -0.48096287
00000000: 1e0e bc3d b8fa 9c3c 5e99 6e3a f1f7 e5bd
00000010: c440 f6be

network.2.weight f4 [5, 5]
0.4443628 0.23906152 -0.41478267 1.1392606 3.990463 0.2996345 0.19027033 -0.17341366
0.9716989 3.9854777 0.56302416 0.26325062 -0.85864925 0.8874097 2.5914292 0.31331825
0.19977349 -0.24511914 1.0096211 3.4197216 0.45650467 0.31518227 -0.48870647 1.107808
3.7979684
00000000: 8583 e33e 8bcc 743e 655e d4be 4bd3 913f
00000010: bf63 7f40 b169 993e 3ad6 423e 5a93 31be
00000020: 42c1 783f 1112 7f40 5a22 103f c9c8 863e
00000030: 70d0 5bbf 482d 633f fad9 2540 406b a03e
00000040: 6c91 4c3e 8300 7bbe 443b 813f b8dc 5a40
00000050: fbba e93e 925f a13e bc37 fabe a7cc 8d3f
00000060: ea11 7340

network.2.bias f4 [5]
-0.011609969 -0.013889327 -0.0383726 -0.0126596 -0.04387244
00000000: bd37 3ebc 0f90 63bc 962c 1dbd 366a 4fbc
00000010: 96b3 33bd

network.5.weight f4 [5, 5]
-0.44685304 -0.23761874 -0.43278638 -0.14751384 -0.004192189 -0.011472252 -0.37388495 -0.2255212
-0.038022947 -0.02078416 0.3241383 0.3075173 0.41412497 0.32884222 0.29403755 0.23604636
0.20558885 0.27150753 0.21914315 0.22662312 -2.5869868 -1.1765162 -4.095913 -2.4088807
-3.539171
00000000: ecc9 e4be 5452 73be 2d96 ddbe de0d 17be
00000010: a15e 89bb 1df6 3bbc d96d bfbe 08ef 66be
00000020: f3bd 1bbd 8b43 aabc 75f5 a53e e872 9d3e
00000030: 3008 d43e 025e a83e 178c 963e 23b6 713e
00000040: e285 523e 0903 8b3e 1067 603e e40f 683e
00000050: 3191 25c0 1598 96bf b811 83c0 1a2b 1ac0
00000060: c781 62c0

network.5.bias f4 [5]
-0.090442285 -0.18713675 -0.23617142 -0.16507116 0.27598903
00000000: ce39 b9bd c7a0 3fbe ecd6 71be 6a08 29be
00000010: 6f4e 8d3e

network.8.weight f4 [5, 5]
-0.414373 0.121797085 -0.36851358 -0.33500102 -0.39410326 0.08453572 0.43871927 -0.34214735
-0.003394399 0.11974245 -0.16121058 -0.06756808 0.20946997 0.26506102 -0.50152934 0.3543316
-0.07057342 -0.013857909 -0.33443683 0.17602873 -0.04493709 0.015683066 -0.42310694 -0.7086087
1.7410983
00000000: b328 d4be c070 f93d d0ad bcbe 4185 abbe
00000010: e7c7 c9be 1021 ad3d d09f e03e f02d afbe
00000020: 9174 5ebb 883b f53d 6314 25be 2261 8abd
00000030: 4c7f 563e 14b6 873e 3a64 00bf f46a b53e
00000040: cc88 90bd 480c 63bc 4e3b abbe e040 343e
00000050: f40f 38bd c679 803c 79a1 d8be 6167 35bf
00000060: 4fdc de3f

network.8.bias f4 [5]
-0.17464828 -0.44453734 -0.007592779 -0.46916693 0.28873888
00000000: 00d7 32be 669a e3be d9cc f8bb a636 f0be
00000010: 95d5 933e

network.11.weight f4 [2, 5]
0.2747454 -0.21544152 0.35090402 -0.21359533 -0.8631843 -0.03165573 -0.13678348 -0.15169823
0.32507685 0.47699162
00000000: 6eab 8c3e b49c 5cbe b1a9 b33e bcb8 5abe
00000010: a5f9 5cbf 70a9 01bd f810 0cbe c856 1bbe
00000020: 7970 a63e 3f38 f43e

network.11.bias f4 [2]
0.27504146 -0.88938206
00000000: 3cd2 8c3e 8bae 63bf
