model/mlp.pt (torch, 8789 bytes, 8 tensors)

network.0.weight f4 [10, 108]
000000 4b 7c 4b 40 a5 43 e7 3f 84 0c d8 40 cc 14 d9 c0
       3.1794612 1.8067518 6.751528 -6.7837887
000010 38 3e 5e 40 cc ff 9b 40 b8 61 60 c0 a6 70 52 c0
       3.4725475 4.874975 -3.5059643 -3.2881255
000020 f3 ef 85 3e 2e f8 4c c1 46 9f 8e 3f f8 0e 30 40
       0.2615963 -12.810591 1.1142356 2.7509136
000030 3f f8 98 c0 0d 4f 40 c0 ca 6c 62 c1 1b e5 94 be
       -4.7803035 -3.0048249 -14.15156 -0.29081044
000040 c3 5b 2e c1 f4 11 98 40 c8 ae 96 c1 82 29 1d c1
       -10.897403 4.7521915 -18.835342 -9.822634
000050 2b b1 65 c0 5f fc 9b c0 d1 ab b7 40 aa e6 d1 bf
       -3.5889385 -4.874557 5.7397237 -1.6398518
000060 2e c5 10 c0 57 d6 da 3e e6 92 32 c0 44 b1 14 40
       -2.262035 0.42741653 -2.790216 2.3233194
000070 1e 8f 12 c1 55 c1 0b 40 21 b8 d9 3f cd 48 59 c1
       -9.159941 2.183675 1.7009317 -13.580274
000080 2e 35 9b 41 d0 04 50 41 9f bd d8 c0 6b 80 27 c1
       19.400967 13.001175 -6.773147 -10.468852
000090 7e 3c d0 c0 e8 3b 91 c1 9c c2 60 c0 13 8e 02 c1
       -6.5073843 -18.154251 -3.511878 -8.159686
0000a0 5c 3d 01 c0 a6 61 04 c0 58 05 41 40 9d d9 d9 c0
       -2.01937 -2.06846 3.0159512 -6.807814
0000b0 e5 ad 75 c0 42 76 d8 c0 b1 f3 08 c1 d6 24 0b c2
       -3.8387387 -6.764436 -8.559495 -34.785973
0000c0 c2 a0 a9 40 a7 a6 ac 41 59 5b 10 c0 5a 47 52 40
       5.3008738 21.581373 -2.2555754 3.285605
0000d0 66 1b 6f 3f 2f f7 e4 bf 30 ef a7 3f 35 2c 8e c0
       0.9340118 -1.7887934 1.3119869 -4.4428964
0000e0 76 39 ce 3e 37 61 b4 c1 c9 9b 06 41 3e 26 b6 c1
       0.40278214 -22.547468 8.4130335 -22.768673
0000f0 77 88 ed bf a6 b4 df bf 02 54 ce c0 99 77 8b 3f
       -1.8557271 -1.7477005 -6.447755 1.0895873
000100 8f e4 56 3f 01 9a 37 bf c9 f2 fd bf db ae 75 41
       0.839425 -0.71719366 -1.9839717 15.355189
000110 3f ff e4 3f 8a 25 bc 3d f0 1d a3 c1 fe c4 ca c1
       1.7890395 0.091868475 -20.389618 -25.346188
000120 bd 53 1f c2 15 46 72 c0 0c 39 f5 c1 d2 2a 36 41
       -39.831776 -3.7855275 -30.652855 11.385454
000130 76 d1 37 c1 ad 7e 74 41 55 bb 0c c2 42 9f c0 c1
       -11.488638 15.280927 -35.18294 -24.077763
000140 41 ca bf c1 d4 d3 00 c1 77 45 2f c1 b8 80 41 c1
       -23.973757 -8.051716 -10.954459 -12.093925
000150 b7 76 97 c1 37 b7 83 c1 34 2f 83 c0 c6 da 5b c1
       -18.932966 -16.46446 -4.099512 -13.7409115
000160 4c 03 bb c1 03 cd 3a 40 ff 9b 5f c0 05 03 39 c1
       -23.37661 2.918763 -3.4938962 -11.563237
000170 40 8d b5 c0 a2 e3 87 c1 38 49 c4 c1 8e a6 da c1
       -5.6734924 -16.986149 -24.535751 -27.331326
000180 5a 13 02 41 4f ae f8 3e d9 98 d6 c0 69 4e d6 c1
       8.1297245 0.48570487 -6.706158 -26.788286
000190 ae ab 56 c1 6d f6 f5 c0 40 91 1e bf 93 31 93 bf
       -13.416914 -7.6863313 -0.61940384 -1.1499504
0001a0 3a 53 fd c1 0c d5 85 bf 93 6b df 40 ed fe ff 40
       -31.665638 -1.0455642 6.9818816 7.999869
0001b0 b1 98 c3 40 4b d3 ae bf b2 0f 82 41 f5 7d 8c c1
       6.112389 -1.3658231 16.257664 -17.561502
0001c0 ab 8d 06 41 87 83 8d 40 ed 0b 91 c0 e8 e4 9a 41
       8.409587 4.4223056 -4.532706 19.36177
0001d0 b0 96 5b c1 61 eb eb c0 46 2b 5d 3e 00 c7 9c 40
       -13.724289 -7.372483 0.21598539 4.899292
0001e0 f6 3d db c0 12 45 a5 c1 f8 7e ae c1 e3 c9 b6 c1
       -6.8513136 -20.658726 -21.811996 -22.848577
0001f0 62 67 bd c1 6d 77 20 c2 fa c4 a3 c1 3f 37 3d c1
       -23.67548 -40.116627 -20.47118 -11.825988
000200 22 79 6f c1 c6 19 80 c1 ca 61 da be 09 86 5c c0
       -14.967073 -16.012585 -0.42652732 -3.4456809
000210 99 0d 78 3f 0b 80 5f 41 fc a8 2b c0 bb e6 27 c0
       0.9689575 13.9687605 -2.682189 -2.6234577
000220 a0 89 e1 bf 5c 6f 41 40 75 bb 18 40 07 70 ad c1
       -1.7620125 3.0224218 2.3864415 -21.6797
000230 ba 73 41 c1 71 95 26 41 93 51 44 c1 bf 2b d9 c1
       -12.090754 10.411485 -12.269916 -27.14636
000240 c5 b2 37 c0 3d 39 c0 c0 6b 91 90 c0 bb f3 e7 40
       -2.8702862 -6.006987 -4.517751 7.2485023
000250 96 6a 0d c1 64 b3 03 c2 b3 18 8e c0 07 17 f0 c1
       -8.838522 -32.925186 -4.440515 -30.011244
000260 54 06 8c c1 96 0c 7e bf 99 7c 02 c2 ae 29 15 c2
       -17.50309 -0.99237955 -32.621677 -37.290703
000270 a3 7f 19 41 ea 5f ce 40 bf c3 0f c1 72 93 3d 41
       9.593661 6.4492083 -8.98529 11.848497
000280 17 5c 81 c1 67 7e 57 40 24 58 b5 c1 d0 8d 7c c1
       -16.169966 3.36709 -22.668037 -15.784622
000290 72 5d bf c1 b3 63 a6 c1 a8 a8 86 41 88 c3 3b c1
       -23.920628 -20.798681 16.832352 -11.735237
0002a0 47 ed 8e c1 3c 75 8b c1 f2 20 9c c1 2f 5e c1 40
       -17.865858 -17.432243 -19.516087 6.042747
0002b0 60 7f ae c0 30 9b 32 40 fe 4f 16 c1 97 9e 3f c0
       -5.4530487 2.790722 -9.394529 -2.9940546
0002c0 a4 37 85 40 60 22 8a c1 5e b8 8b c0 db c2 80 41
       4.163042 -17.266785 -4.3662558 16.095144
0002d0 a1 8a 00 c2 31 3b 00 c0 e3 df b8 c1 6b 07 23 c1
       -32.13538 -2.0036128 -23.10932 -10.189311
0002e0 bd d1 25 41 3d 15 f7 3e 88 41 97 c1 55 90 06 c1
       10.363706 0.4825839 -18.906998 -8.410237
0002f0 0a 4a bd c1 15 4d f9 c0 3e e1 80 bf a6 e6 5d 3f
       -23.661152 -7.7906594 -1.0068738 0.86680067
000300 85 b7 f0 c1 85 a9 04 c1 8a db e2 c1 fa 57 08 41
       -30.08961 -8.291387 -28.357197 8.521479
000310 b6 69 0e 42 99 52 11 c1 ca e8 b6 c1 5c 6d c0 c1
       35.603233 -9.082665 -22.863667 -24.053398
000320 33 42 dc c1 91 4d b5 c1 2e ea af c1 55 98 c3 c1
       -27.532324 -22.662874 -21.989346 -24.44938
000330 77 0d 2c 41 88 f3 04 41 d9 8b b1 bf 0a cf b1 c1
       10.753287 8.309456 -1.3870803 -22.226093
000340 b3 47 0f c1 13 9f 41 c1 b4 0f c1 40 a1 e9 09 41
       -8.955005 -12.1013365 6.033167 8.619538
000350 21 34 84 bf 2e d6 e5 c0 6d 2f 61 c1 b3 38 31 c0
       -1.0328408 -7.182395 -14.074079 -2.7690856
000360 3a 5d 99 3e d2 c4 e2 3d f4 ba 0e 3e ea fc 3f be
       0.2995394 0.11072697 0.13938504 -0.18748823
000370 af 3a f8 bd d4 46 59 be 39 f3 fd be cb 02 4d be
       -0.12120568 -0.21218425 -0.49599627 -0.20020597
000380 3e 81 1c bf 79 1a ad bd 80 82 cb be fd da 04 bf
       -0.6113471 -0.08452315 -0.39748 -0.5189665
000390 e1 fc 0f bf 86 0b 8c be cb a6 8d bd d9 90 e3 be
       -0.5624524 -0.27352542 -0.06916579 -0.44446447
0003a0 a3 c3 9c be c1 ed aa be ac ce ef be bc d1 ca be
       -0.3061801 -0.33384517 -0.46837366 -0.3961314
0003b0 fe d8 b1 be bb 56 c4 be bf 9b 0a bf 69 88 ee be
       -0.34735864 -0.3834742 -0.541439 -0.46588448
0003c0 7d 24 cd 3c 3f c3 f1 be 3e 81 cc be 95 97 c9 bd
       0.025041813 -0.47219273 -0.39942354 -0.09843365
0003d0 00 32 f9 be 98 1a 08 bf e3 87 ba be 75 35 16 bf
       -0.4867096 -0.5316558 -0.36431798 -0.5867532
0003e0 30 13 16 3c 18 fc 15 bf 87 de bc be 5d ce a5 be
       0.009159848 -0.5858779 -0.36888525 -0.32384005
0003f0 67 13 bd be f5 a0 ff 3e 6f 3c e3 be bc c5 eb be
       -0.36928865 0.49927488 -0.44382045 -0.46049297

network.0.bias f4 [10]
000000 bf 04 15 be a2 d6 2a 3f 0a fe 15 bf 2e dc 25 c1
       -0.14552592 0.66733754 -0.5859076 -10.366255
000010 bf 72 0e c0 5d 15 e5 be f3 25 c6 be 1b 37 3c c0
       -2.2257535 -0.4474286 -0.38700828 -2.9408634
000020 5e 82 ca c0 1a 3c 32 c0
       -6.328414 -2.7849183

network.2.weight f4 [10, 10]
000000 69 61 29 bf 52 43 e7 be 38 59 54 be db 1d 27 bf
       -0.6616426 -0.4516855 -0.20737159 -0.6527993
000010 df 01 6a ba 82 51 98 be 06 1f 8a be 65 18 9a be
       -0.00089266704 -0.29749686 -0.26976794 -0.30096737
000020 d2 da 13 be 66 e0 6f be d4 80 72 bf ff 53 54 bf
       -0.14438942 -0.23425445 -0.94727826 -0.8294067
000030 20 5f 61 bc 47 cc 5c bf 39 57 38 be 23 aa 97 3e
       -0.01375559 -0.862492 -0.18002023 0.29621992
000040 00 c3 d5 3a 66 24 8a be b4 ec 92 bd bc 31 8c be
       0.0016308725 -0.26980895 -0.07174054 -0.27381694
000050 80 e7 0f 3e 33 eb 2d 41 b1 69 df bd 49 57 40 c1
       0.14053154 10.869922 -0.10908831 -12.02131
000060 d2 a0 d8 40 0a 3d d0 be 61 3a 12 bf 8b e8 83 40
       6.7696314 -0.4067157 -0.5712033 4.1221366
000070 09 d9 c8 c0 d5 f7 b6 c0 32 64 30 c0 34 e0 ab bf
       -6.2764935 -5.717753 -2.7561154 -1.3427796
000080 ba 51 58 be b8 6c 26 c0 79 74 fb bf 5a a3 7e 3e
       -0.21124926 -2.6003857 -1.964492 0.24867001
000090 64 2c 97 be 44 cb 4f c0 e8 9a a7 bf 43 c5 29 c0
       -0.29526055 -3.2467813 -1.3094149 -2.652665
0000a0 8c 9f 48 c0 8b 84 1a c1 d9 24 67 be 65 0b 58 40
       -3.134738 -9.657359 -0.2257265 3.3756955
0000b0 c4 07 8a c0 28 5d c2 be 30 e2 03 3f 5f 7d ec bf
       -4.313448 -0.37961698 0.5151701 -1.847576
0000c0 a0 6d 51 c0 a3 05 ba 3e 62 6e 1e bf a9 e4 fc be
       -3.272316 0.36332425 -0.6188718 -0.49393204
0000d0 05 d3 73 be 4d 92 1c bf 3e 56 74 be 4d 67 7d be
       -0.23810966 -0.6116074 -0.23861024 -0.24746437
0000e0 33 d2 07 be 9f 62 24 bf 3c af 03 bf 76 f7 c3 be
       -0.13263778 -0.64212984 -0.5143926 -0.38274735
0000f0 4a f0 ee bf e4 b2 32 c1 4e f0 72 bc 5b 5f 64 40
       -1.866708 -11.168674 -0.014827801 3.56832
000100 db b9 aa bf b1 a4 07 3f 11 59 29 3e b7 71 ef bf
       -1.3337969 0.52985674 0.16537882 -1.8706578
000110 7c 0f 30 c0 b3 cc a2 3e b4 19 a8 bf b5 0d fd c0
       -2.750945 0.31796798 -1.3132844 -7.907923
000120 34 31 fa 3e 31 52 3d 40 ca c5 fa bf f0 e1 ba 3d
       0.48865664 2.9581416 -1.959161 0.091251254
000130 4a c7 95 3e 4f 59 f8 bf 01 79 b8 bf fa 45 af 3e
       0.29253608 -1.9402255 -1.4411927 0.34233075
000140 bc da 48 3e 3f f7 33 41 7c 7a 2b be 74 0f 0d c1
       0.1961469 11.247863 -0.16745943 -8.816273
000150 75 4a f2 40 27 7c 0a bf 91 f5 33 be ef ed 96 40
       7.571589 -0.5409569 -0.17574145 4.7165446
000160 72 f3 29 c1 78 d0 ba c0 58 52 25 bf 6a 8f 45 bf
       -10.621935 -5.837948 -0.6457877 -0.7717196
000170 af ba 0c be b6 4a 78 c1 ba 4d 1d 41 5c 89 32 bf
       -0.13743089 -15.51824 9.831476 -0.69740844
000180 31 0d 27 be e5 eb 39 41 7f d1 46 c1 fb 90 8f c1
       -0.16313626 11.620091 -12.4261465 -17.945791

network.2.bias f4 [10]
000000 c4 aa 6f bf 9b 82 87 bf 17 cd 94 c1 29 83 7f c0
       -0.9361994 -1.0586733 -18.600142 -3.9923804
000010 3e 44 ff 3e b5 1b a2 be 9b be 0a 3f 81 26 09 3f
       0.49856752 -0.31661764 0.5419709 0.5357438
000020 f6 5d a1 c1 74 11 ae c1
       -20.17088 -21.758522

network.5.weight f4 [10, 10]
000000 b7 d6 71 3e 0b 1f 86 3f 28 4a 5a bf 3f c5 4f 3e
       0.23617063 1.0478224 -0.85269403 0.20290087
000010 d2 f5 0a c0 e8 92 83 bd 3a d7 dd bf fb 2d 98 bf
       -2.1712537 -0.064245045 -1.7331307 -1.1889032
000020 82 b9 63 bf 7b a3 62 bd 16 08 9e 3e c0 07 82 be
       -0.8895494 -0.05533169 0.30865544 -0.25396538
000030 fd 85 01 c0 2b e4 b7 bf 65 c2 c7 3e 59 67 a0 3e
       -2.023803 -1.4366506 0.390155 0.31328848
000040 0d 2c 9e 3e b4 c9 80 3e d3 28 0a c0 24 05 30 c1
       0.30892983 0.25153887 -2.1587417 -11.001255
000050 fc 1e 19 3f 18 4c ce 3d 79 6e 5b c0 19 6d 01 c0
       0.59812903 0.100731075 -3.4286177 -2.0222838
000060 fd 1c 6c 3e ea 74 68 3e d5 85 86 3e b1 17 1a 3e
       0.23057933 0.22700849 0.2627398 0.150481
000070 e8 d2 81 c1 2c d5 09 c0 84 69 81 bd a2 3e 97 bd
       -16.227982 -2.153636 -0.06318954 -0.07384993
000080 ed ce 98 bd 6e 38 5d c0 76 56 b9 bf b1 4d a0 3e
       -0.07461343 -3.4565692 -1.4479511 0.31309274
000090 7a 2c b2 bf 1b 1f e2 bf 84 62 36 bf 92 55 9c bf
       -1.3919823 -1.7665743 -0.7124407 -1.2213614
0000a0 4a 2c a7 bc ae d3 41 3f b7 47 1b be be 33 1b 40
       -0.02040686 0.7571362 -0.15164076 2.425033
0000b0 37 c8 ce bf c3 8a 20 be 8c e6 55 c0 ba c1 19 c0
       -1.6154851 -0.15677933 -3.3421965 -2.4024491
0000c0 0e e5 de be d6 43 6e be 88 9b cd 3e 24 fe b2 3d
       -0.4353413 -0.23268065 0.40157723 0.0873988
0000d0 d7 c9 01 c0 20 77 0f c0 af 03 d1 bf d0 ed 58 3e
       -2.0279443 -2.2416458 -1.6329249 0.21184468
0000e0 8a 77 14 c0 46 2f e4 bf 39 0d 0a c0 10 b3 ee bf
       -2.319796 -1.7826927 -2.157057 -1.8648396
0000f0 07 a9 5d be dc e7 8b be ec 75 37 be da c5 23 be
       -0.2164651 -0.27325332 -0.17916077 -0.15993443
000100 3d 7b 0a bd d1 50 24 3f 44 c6 37 bf fe 01 a1 be
       -0.033808935 0.64185816 -0.71786904 -0.31446832
000110 6b 4e 27 bf 54 0b a5 be 2f 27 1e be 29 53 a1 3e
       -0.6535403 -0.32235205 -0.15444635 0.3150876
000120 9d 50 fb bf ff 4a db be b0 99 f2 3e b6 3c ee 3e
       -1.9633976 -0.42830655 0.4738288 0.46530694
000130 f5 78 ab 3e a1 ee 8f 3e 50 44 0a c0 80 b6 08 c0
       0.3349072 0.28111747 -2.1604195 -2.136139
000140 b0 23 22 bd 45 de 8a 3e 16 c6 86 be c9 20 2f be
       -0.039584816 0.27122703 -0.26323003 -0.1710235
000150 84 00 3a bf 8a 8b 4c 3e 21 bf 39 be 91 90 94 bf
       -0.72657037 0.19975105 -0.18139316 -1.1606618
000160 db 09 7f be 6b b5 11 bf 04 bc cb bd 9c 89 8e be
       -0.24906103 -0.56917447 -0.099479705 -0.27839363
000170 50 ed 9c be 5c 31 c8 bf 15 48 15 bf 8f 86 1c bf
       -0.30649805 -1.5640063 -0.58313113 -0.6114282
000180 72 b2 ad bf 71 2c 93 bf 5e 81 9b bf 91 0a 25 be
       -1.3570082 -1.1497937 -1.2148855 -0.16117312

network.5.bias f4 [10]
000000 0b 2c d0 bf da 47 3c 3f 66 2f 2a 3f ba 1a 10 c0
       -1.6263441 0.73547137 0.66478574 -2.2516313
000010 29 6d 0d be c7 b3 4a bf 0f 47 c0 be 8a 1e 48 3f
       -0.13811173 -0.7918057 -0.37554213 0.781716
000020 a4 d7 0d bf 5a 20 a3 be
       -0.55407166 -0.3186062

network.8.weight f4 [2, 10]
000000 f7 88 bb be 0b 74 71 3d 5e bc a6 3e 24 c3 5f be
       -0.36627933 0.058948558 0.32565588 -0.21851784
000010 32 6f 04 3e ac 66 a1 be 18 3f 00 bf 4f 4f b7 3e
       0.12933043 -0.31523645 -0.50096273 0.35802695
000020 27 aa c2 be f3 09 ef bd bb f2 1e 3e 80 07 bf be
       -0.3802044 -0.116718195 0.15522282 -0.3731041
000030 be e3 b7 bd ab 2e 02 3f 73 10 f1 3d b9 e9 9b 3e
       -0.08978985 0.5085246 0.117707156 0.30451754
000040 b8 31 f2 3d 61 f7 e9 bd 29 d4 cf 3d 5e 8f 41 3e
       0.11825889 -0.11424137 0.10147888 0.18902346

network.8.bias f4 [2]
000000 16 e8 c4 3c f9 da 93 3e
       0.024036448 0.28878
