model/mlp.pt (torch, 19669 bytes, 8 tensors)

network.0.weight f4 [25, 108]
00000000: 4996 a6bf 8cfd 253e b218 b13e 3332 f0bf
00000010: 2152 fdbe 9967 f83e 1bd4 76bf 47d5 70be
00000020: 9ff0 01be c09a 843f bf9a 1bbf 42d0 0dbf
00000030: 480e f6be 14db f5be 91b1 223f 3b93 77bf
00000040: 2054 903f 1abf 20bf f78b c03f de9c 28c0
00000050: 47e2 293d 2f8c c7bd 1f07 ef3e c9d8 0c3f
00000060: 1c5e 2bbe fadd 83bf dbb1 563e 6e07 f7bf
00000070: a6a9 ae3f d6d4 cdbf 956e 35bf 77d4 5a3e
00000080: f448 813f 9c4f 143e c8d1 523d 0d04 8c3e
00000090: ed56 b43f 1a85 57bf bd2d 64bf 71cb 04bf
000000a0: 5515 973f b241 acbf fbdd 6d3c 7879 54bf
000000b0: 7ffe 453d 0f0e 22bf b70c 80bf 2bf6 4b40
000000c0: 3bab 8b3e 1263 15bf 1b93 24be e899 7e3f
000000d0: e15f 353f d3b6 323f 3cd8 a4bf 6af2 ebbf
000000e0: 7828 083f 29ec 08be 46da 8ebc 1f47 8abf
000000f0: 98f0 823e 74f1 6d3e d0be 883f 1ca9 2ebe
00000100: 0deb 0ebf 2f2d c83d ee51 283f 744b 89bc
00000110: 9084 9cbe e015 cebd 844b 7b3e 5cd5 7abf
00000120: dd9e 3fbe f2d7 9cbf de74 ca3f 2be1 79be
00000130: 22db 493f 1f46 d43e 3c59 de3f b0d4 963f
00000140: ec0c f3be a140 ce3d b571 933f 2769 0bc0
00000150: f543 ba3f d4f9 82be 4db4 52bf 6d25 d0bf
00000160: b1f2 6d3f 3a89 86be 3706 a83f 1757 783f
00000170: 7bec a73f 024e e9bf 5414 b53f 12a7 243f
00000180: d95b c6be 745c 4bbd a7a0 92bf 55c5 883f
00000190: 9dd7 25bf 9e46 3bbe 9453 c13f 55f2 dfbf
000001a0: 9730 71be e6c8 e83b d694 0540 59db d4be
000001b0: 2fa1 b7bd b972 e13d 7734 5dbd 5486 49be
000001c0: 55c1 bebe bf11 b33e c3cd 49be 0108 f43e
000001d0: 3181 bebe e980 7c3f 4c0b cb3e 455c 91bf
000001e0: 614f 56bf 6f81 0ebf 53f6 2140 852e 9b3f
000001f0: a547 8cbf 1e65 a63e da18 0d3f 1f96 0040
00000200: f27e a5bf effe 15bf 761a d53e f04c c43e
00000210: ecb0 cf3d ce9b fabf ed56 063f 4f9f 37bf
00000220: 8073 2640 dc75 81bf 57ad 013f 5c44 a03d
00000230: 8338 1ac0 92f4 c5bf 8244 833e 4a51 e43e
00000240: 9da3 843d 68a1 a43f 3871 83be d634 a5be
00000250: 199d 9c3f d8c3 2dbe d619 a93e 9ed0 923d
00000260: ba61 d03f c59f 8e3f c05a 293f 07ca a43e
00000270: 370d 38bf e2c0 d4bf 8706 9d3e e328 9e3f
00000280: 3998 83bd 024e 4cbe 1111 53bc b00f d9be
00000290: eada b73e a969 3bbd 90d4 f23e d0d3 14bd
000002a0: 8ae7 debf 751c fa3e 8840 00c0 dee8 01be
000002b0: 306b 653e efed 70bf 736e f53e e166 3440
000002c0: 2eae 57bd 81bc 4d40 89b7 6e3e f608 7a3f
000002d0: fe2b 433e aaea 3240 3abb 053d 92bd b7bf
000002e0: f612 00c0 9392 293f 3d52 2fbf fa85 dcbf
000002f0: 7a78 7c3f 20c5 743f 7cec e73f e749 8540
00000300: efd1 ec3f 383f 4dbf d5bb 5740 2967 a2bf
00000310: d508 853d d65e 2a3e a9a7 593f 4f26 9740
00000320: 05fd b63f 7618 f0bd 88f4 2740 e60b 5d40
00000330: 48fe 2840 13a2 0040 56c3 e7bf 0014 313e
00000340: b754 e73f 223f aa3f 6de9 0a40 214f 1a40
00000350: 6338 0a40 14bb f73e b234 2bbf 99df c23f
00000360: 6cba 65bf eaaa d6be 66f1 af3e f0e5 953e
00000370: 9fd5 0dbe d530 2bbf 9aa5 44be 3cb1 81bf
00000380: b91c 97be b838 3a3f 54bf cc3e cc1e 143f
00000390: 09d3 ffbe e47a 8ebf 6d97 0e3e 9b23 f13e
000003a0: e3df 333e 08cf fc3e 3a55 d53e d8b3 8cbf
000003b0: 1086 003f 55d4 2dbf bae6 953e 9608 1e3f
000003c0: da2c 71be f936 84bf f1d4 3d3f 8d77 573f
000003d0: 80d0 903f 8599 d6bf e0d4 9abe 3cfb 1c3c
000003e0: 0737 22c0 7a84 37bf 16d4 e13f 54ce ef3e
000003f0: 3138 d73e d75a 94bf ce19 37be 37e5 863f
-1.3014613 0.16210002 0.34589154 -1.876532 -0.49476722 0.4851654 -0.964174 -0.23518859
-0.12689446 1.0359726 -0.60783 -0.553959 -0.4805777 -0.48018706 0.63552195 -0.9670903
1.1275673 -0.627916 1.5042714 -2.6345744 0.04147556 -0.09743535 0.4668512 0.5501829
-0.16735119 -1.0302117 0.20966284 -1.9299142 1.3645523 -1.6080577 -0.7087186 0.21370111
1.0100389 0.14483494 0.051469594 0.2734684 1.4089028 -0.8418747 -0.8913229 -0.51872927
1.1803385 -1.3457549 0.014518256 -0.82997847 0.04833841 -0.633027 -1.000388 3.1869
0.27279076 -0.58354294 -0.16071741 0.9945359 0.70849425 0.6981022 -1.287849 -1.8433354
0.5318675 -0.13371338 -0.017438065 -1.0802954 0.25574183 0.23236638 1.0683231 -0.17056698
-0.5582741 0.09774243 0.65750015 -0.016759612 -0.30569887 -0.10062766 0.24540526 -0.9798181
-0.18712945 -1.2253401 1.5816915 -0.24402301 0.78849995 0.41459748 1.7370982 1.1783657
-0.47470796 0.10070921 1.1519076 -2.178293 1.4551989 -0.2558123 -0.8230637 -1.6261421
0.9294844 -0.2627657 1.3126897 0.9700789 1.3119043 -1.8226931 1.4146829 0.6431743
-0.3874195 -0.049648717 -1.1455277 1.0685221 -0.64782125 -0.18288657 1.5103631 -1.7495829
-0.23553692 0.007104027 2.0872092 -0.415736 -0.0896629 0.1100821 -0.054005112 -0.19680148
-0.37256876 0.34974477 -0.19707398 0.47662356 -0.3720794 0.986342 0.39657056 -1.1356283
-0.8371487 -0.5566625 2.5306594 1.2123572 -1.0959364 0.3249902 0.55116045 2.0091627
-1.2929366 -0.5859212 0.4162175 0.3833995 0.10141167 -1.9578798 0.5247639 -0.7172746
2.6007996 -1.0114093 0.5065512 0.078255385 -2.4096992 -1.5465262 0.25638205 0.4459327
0.06476519 1.2861757 -0.25672317 -0.32266873 1.2235442 -0.1696924 0.33027524 0.07168697
1.6279824 1.1142508 0.661541 0.32185385 -0.71895164 -1.6621363 0.30669042 1.2356228
-0.064255185 -0.19951633 -0.012882487 -0.4239478 0.35909206 -0.045755062 0.47427797 -0.036334813
-1.741441 0.48849836 -2.0039387 -0.12686488 0.2240417 -0.9411306 0.4793583 2.8187792
-0.052656345 3.2146304 0.233122 0.97669923 0.1905975 2.7955728 0.032649256 -1.4354727
-2.0011573 0.6623928 -0.6848486 -1.7228386 0.9862133 0.9561329 1.8119044 4.1652713
1.8501567 -0.8017459 3.3708394 -1.2687732 0.06495825 0.1663774 0.85021454 4.7234263
1.4295965 -0.117234156 2.6243 3.4538512 2.64052 2.0098922 -1.8106487 0.17292786
1.8072728 1.3300517 2.1704972 2.4110796 2.1596916 0.48384917 -0.6687728 1.5224487
-0.8973758 -0.41927272 0.3436386 0.2927699 -0.13851021 -0.66871387 -0.19203797 -1.0132213
-0.295141 0.72742796 0.39989722 0.5785949 -0.49965695 -1.1131253 0.13924952 0.47097477
0.17565875 0.49376702 0.41666585 -1.0992384 0.50204563 -0.6790212 0.29277593 0.6173185
-0.23552266 -1.0329276 0.7415305 0.84166795 1.1313629 -1.67656 -0.30240536 0.009581383
-2.5346086 -0.7168652 1.7642848 0.46837103 0.42035058 -1.1590222 -0.17880937 1.0538701

network.0.bias f4 [25]
00000000: a3b3 d0bc f10d e5be ecd9 ffbe adba 4c3f
00000010: 8faa 8d3e 433a 5a3f 6698 df3e 0991 a2bf
00000020: 10be 04bf 1e00 b9be 7e15 31be 9378 3c3e
00000030: 8b2a 02bf 869c 5abd 0c63 c13e dc2d 103f
00000040: 8bef 303f fda4 32bf 20d6 8bbe bc80 813e
00000050: 4651 3ebf c8f5 0ebf ac3a 743e 1478 20bf
00000060: 320e 753f
-0.025476282 -0.447372 -0.4997095 0.79972345 0.27669188 0.8524515 0.43670958 -1.2700511
-0.5185251 -0.36132902 -0.17293355 0.1840537 -0.50846165 -0.05337193 0.3777088 0.56319976
0.69115514 -0.69783 -0.27311802 0.2529353 -0.74342763 -0.5584378 0.23850507 -0.62683225
0.95724785

network.2.weight f4 [25, 25]
00000000: bfd0 d4bf 7907 fabe 97e7 ee3d f79e e2bf
00000010: 6d7e 1abf cc64 8dbf 45bf 583e b00a ab3e
00000020: 9227 a2be 55e4 153f 9b1a 76be 8e10 5f3e
00000030: 7db5 b53d 4096 50be 8d82 97bf b1ae 48bd
00000040: 7772 ecbe 9eba 2e3f 4d29 86bd c4e6 7f3e
00000050: cd8c d83b d05b 78be e63e 64bc f842 143e
00000060: 76ad b2bf 9887 983e dbbc a33e 1362 513f
00000070: 6dec 203e 04ca 153f 8d52 d9bd 0f28 51be
00000080: 0eb2 f83f 9ace da3e 8ca1 1f3f dfc3 083e
00000090: e8e7 f4be 0791 213f 3385 803f 4cc0 d4be
000000a0: 94d6 123e 42db 003e 4967 a4bf add3 263f
000000b0: c0d2 a4be 5896 903f 8f01 3d3f 19d5 c3bf
000000c0: 6ec4 813f 0538 203d f04e a13d c649 7f3f
000000d0: 95d5 653f 3fa3 c43e 5a83 903e 982e 21bd
000000e0: d1bd 753e a9eb 2cbf 6d17 893e 8cf5 d93e
000000f0: ad7c 8b3f aab3 46be e335 553f ee7f 473e
00000100: 838f 89be 9b0e eabe f8af 333d 08a5 b23d
00000110: d46d 823f 59c5 f0bd 5bd5 723f 1bcf 41be
00000120: 46ba cebd d1c0 3cbe dc96 f93d 0459 4b3e
00000130: 40c7 73bf dd67 6ebe b35e 103e fee7 453e
00000140: db09 9cbd fd82 9f3e fad2 f43e f2a3 8a3e
00000150: 45ad 643f df44 753f 92be ad3d 7db0 fb3e
00000160: f808 e43e ff89 bbbd bf9d 2fbd 43a1 af3e
00000170: 30a1 9ebf dbfe 503f 584f a7be b02b 993e
00000180: f5a3 0f3f b792 ffbe e779 ea3d a6e0 493e
00000190: 06b5 89be 74b3 8cbf c760 d1bf f983 febf
000001a0: 7012 2fc0 48e4 4c3e 9e2f 6d3c 0238 0c40
000001b0: a0d3 0b3f 0843 fcbe 4246 d0be 892a 73be
000001c0: d71a e43e d7d8 8ebf 3550 7fbf 6f7a 7a3e
000001d0: 5271 1f3c 5640 123f 48d6 66bf f16c 54be
000001e0: 754e 2a3f 8c7f 8c3e 90d0 05bf 2325 d73d
000001f0: 30d9 82bd 0ad0 863f 5f1d ab3f f649 873f
00000200: 9315 a23e 4c90 263f 87e6 67bf 4047 c4bf
00000210: 5ae8 d53f 72ee 843f 83cf 893e 40be 283f
00000220: edba 4abf 4b9b 7f3f 0502 953d 20aa 0b3f
00000230: bcf1 05c0 ba0d 5dbf 9589 acbf 693e 213f
00000240: ee16 47bf 446b d73f c7ff 863f 11fb 0fbf
00000250: 0998 4a3f 60d4 3f3e cddc 3b3f 48bc 5c3f
00000260: dd2a 1f3f 9980 9c3e dd39 173f c58a a2be
00000270: aed3 1ac0 b247 c23f d754 313f 6807 be3e
00000280: 05ec 583f 34df 1dbf 85db 133f d600 b63e
00000290: a2be dd3e 4407 0dc0 342f 9cbf ced9 99bf
000002a0: 7b4e 3a3f b05b e3be cc0d ab3f f8e7 1a3f
000002b0: ed6e 10bf 17f3 4e3f 1205 453e ac32 e8bf
000002c0: 132c 04bf c18e 4c3e ee25 15c0 582e 5fbf
000002d0: 5b0e 57bf e8f7 703e ac7a 623f cd8f 9abe
000002e0: c43e 0e3f 0fe9 82bd 0a84 683e b0a9 f23d
000002f0: ed2f abbe f882 6abf 9fc9 aabc 3d1b bbbe
00000300: 844b 063f e9e7 95bd 56f0 203e 8f83 233e
00000310: d505 3bbe 243c 9abc 9860 df3e d355 c5bf
00000320: 2d42 d6bf bd0e 12bf 53c4 c23d 0bcc d7bf
00000330: 1095 edbe f2fa 8cbf 0b70 333e ca46 a53e
00000340: 23e3 c7be 540d 1f3f 9e26 93be 8670 763e
00000350: 08ec c73d 9ce9 64be 3704 94bf 309c 653a
00000360: 0eed 11bf daab 3a3f 675f 9dbd 2ee4 8b3e
00000370: 7273 7ebd 4cda ccbe ee3d 56bc 471e 4d3e
00000380: 2d25 c2bf b3ee 963f e192 ab3f 9e68 7d3f
00000390: 43d7 a43e 47dd 303f cde1 64bf 4cbb c6bf
000003a0: 5abb c73f 3d64 813f 1a49 9d3e 7add 2c3f
000003b0: e46d 47bf 741e 8e3f fee5 8b3e 181d 093f
000003c0: e308 febf 179b 4cbf 1bcf bdbf a1b5 283f
000003d0: a2b8 7bbf 4a4b e43f a032 7c3f 36ed 19bf
000003e0: af32 633f 3c3e 813e 5763 013f 5b70 4c3f
000003f0: b576 2b3f f2a1 803e 470a 013f 2512 febd
-1.6626204 -0.48833826 0.11665266 -1.7704762 -0.6034916 -1.1046386 0.21166714 0.3340659
-0.31670815 0.5855153 -0.24033587 0.21783659 0.08872507 -0.20369816 -1.1836716 -0.048994724
-0.4618108 0.68253505 -0.06550846 0.24990374 0.0066085816 -0.24253774 -0.013931012 0.14478672
-1.3959186 0.2979095 0.31980023 0.81790274 0.1571519 0.58511376 -0.106114484 -0.20425437
1.9429338 0.4273575 0.62355876 0.13355969 -0.4783318 0.6311192 1.0040649 -0.4155296
0.14339668 0.1258364 -1.284402 0.6516674 -0.3219204 1.1295881 0.73830503 -1.5299407
1.013807 0.039115924 0.07876384 0.99721944 0.89779025 0.38405797 0.28225213 -0.039351076
0.2399819 -0.6754709 0.26775685 0.4257015 1.0897423 -0.19404474 0.8328535 0.19482395
-0.26867303 -0.45714268 0.04386899 0.087228835 1.0189767 -0.11756391 0.94856805 -0.1892666
-0.100941226 -0.18432929 0.12186977 0.19858176 -0.95225906 -0.23281808 0.14098625 0.19326779
-0.07619067 0.31154624 0.47817212 0.27078205 0.8932689 0.95808214 0.08483614 0.49158087
0.44538093 -0.0915718 -0.042875048 0.3430272 -1.239294 0.8163888 -0.32677722 0.29916143
0.56109554 -0.49916622 0.11449032 0.19714603 -0.26895922 -1.0992265 -1.6357659 -1.9884025
-2.7355003 0.20008957 0.014476685 2.1909184 0.5461979 -0.4926989 -0.40678602 -0.23746695
0.44551727 -1.1159924 -0.9973176 0.24460767 0.0097316075 0.5712942 -0.9017072 -0.20744683
0.66525966 0.2744106 -0.52271366 0.1050513 -0.063890815 1.0532238 1.3368338 1.0569446
0.31657085 0.6506393 -0.9058613 -1.5334244 1.6711533 1.0385268 0.2691613 0.659153
-0.79191476 0.99846333 0.07275776 0.54556465 -2.0928793 -0.8634907 -1.3479487 0.62985855
-0.7776936 1.682961 1.0546807 -0.5624247 0.7913824 0.18733358 0.7338379 0.86224794
0.6217478 0.30566862 0.5907267 -0.31746498 -2.41917 1.517813 0.6927008 0.37115026
0.8473514 -0.61668706 0.57756835 0.35547513 0.43309504 -2.2035685 -1.2201905 -1.2019594
0.72776 -0.4440589 1.3363585 0.60510206 -0.5641926 0.80839676 0.19240215 -1.8140464
-0.5162975 0.19976331 -2.33044 -0.8718009 -0.8400628 0.23532069 0.8846843 -0.30187836
0.5556452 -0.06392109 0.22706619 0.118487716 -0.33435002 -0.9160609 -0.020848094 -0.3654422
0.5245898 -0.07319624 0.15716681 0.15968154 -0.18263943 -0.018827505 0.43628383 -1.5416816
-1.6738945 -0.5705374 0.09510102 -1.6859144 -0.46402788 -1.1014082 0.1752321 0.3228057
-0.3904048 0.6212971 -0.287404 0.24066362 0.09761816 -0.2235474 -1.1563786 0.00087589305
-0.5700234 0.72918475 -0.07684212 0.27322525 -0.062121816 -0.40010297 -0.013076289 0.20031081
-1.5167595 1.1791595 1.3404199 0.9898776 0.32195482 0.6908764 -0.89407045 -1.5525908
1.560405 1.0108715 0.30719835 0.67525446 -0.77902055 1.1103044 0.27323908 0.5356002
-1.9846462 -0.7992415 -1.4828829 0.65902144 -0.983286 1.7835476 0.9851475 -0.6012758
0.8874921 0.25242794 0.50542206 0.7985894 0.6697801 0.25123554 0.50406307 -0.124058045

network.2.bias f4 [25]
00000000: b0f9 813e 845f 01bf a557 92bf 9686 48bf
00000010: 9b03 cc3d f2b0 dfbc fed3 b33d dd05 d23d
00000020: 222a 883e 27ec d1bd a321 8dbd 3cab 10bf
00000030: 0dd1 02bf f5c0 8e3e b125 8bbf 8c13 02be
00000040: fd25 f5bd dab0 183f 372c 3ebf 745f f3be
00000050: 3cfc bcbd 09f8 e9bd 0273 28be 1a1f 33be
00000060: 4f3f e1bd
0.2538581 -0.5053637 -1.1432997 -0.7833036 0.09961625 -0.027306054 0.08780669 0.102550246
0.26594645 -0.102501206 -0.06891181 -0.5651128 -0.51100236 0.2788159 -1.0870878 -0.12702769
-0.11970136 0.59644854 -0.74286216 -0.47533762 -0.092277974 -0.11424262 -0.16450122 -0.17492333
-0.10998403

network.5.weight f4 [25, 25]
00000000: 0673 9f3f 672c c2be f2eb 02bf c238 44bf
00000010: fd22 1a3e 034a 46bf 83dd 7dbf a5c3 c23f
00000020: ec01 c63e 720f 54bf 4cf1 22bf 93be a7be
00000030: 0855 f5be 4c13 4f3f 32ca 7cbf 7c62 113f
00000040: e2e4 78bf 150b dd3e 8de4 35bf b95c e2be
00000050: 1364 24bf 2db7 07bf 1f96 7cbf 6ee8 89bf
00000060: 7bb0 13bf 1911 983f d526 dabe 391b d0be
00000070: 386a 90bf 14a2 8c3e a0a1 6bbf 1885 a2bf
00000080: 3f7b 573f e539 523f 506d 8abf 475c 1cbf
00000090: 79f5 49bf 9c40 7fbf 756a 723f 821f 7ebf
000000a0: 76f9 573e 97ad 8bbf 339d 2d3f fc0c 7bbf
000000b0: 33c7 66bf a958 75bf c08d 3cbf bc2a 85bf
000000c0: 26aa a7bf eaec 53bf 7d1a 0240 f8b6 dabe
000000d0: 059d 1cbf f41e ac3b 44d7 033f c001 afbf
000000e0: d271 9cbf ba1b e3bd 0484 e43f 7267 29bf
000000f0: a64f 43bf dbd5 35be aaef 49be 4186 1840
00000100: f745 02c0 af12 0f3f 638f 0bbf 95d4 03bc
00000110: 6a06 64bd 8f4b 87be f031 6bbf f14f 43bf
00000120: 687c 90bf 83da 6bbf d0ce 20bf 640b 41bf
00000130: f300 8a3d fdeb 833c a42d e6bb 1486 38bd
00000140: 2e07 3940 0d71 893f 0059 e1be b518 76bf
00000150: bc5d 0e40 4906 793e 5f02 843d 3f88 f33c
00000160: 7f0c 82bf 5d2f 3c40 4a8f fdbf c0d6 8d3e
00000170: d6f4 203f 5c6c 71bd f909 e93c 05ba e73d
00000180: a19d 5c3e aa1d 123e 9a58 373e e456 153e
00000190: 9108 1440 4a3d 20bf bfe2 9f3c d822 4abd
000001a0: 912d 3d3f b21c 8abf 1f8e bfbf 5599 883f
000001b0: b375 0040 a4ad 42bf 139c d9bf c48b 1dbd
000001c0: 8f23 68bc 7847 f23f ca0f b9bf 2c60 e13e
000001d0: 8230 45bf 9e7e 86bc d8eb 97bd 6eb8 f0bb
000001e0: 6d87 80bf 901b c1bf 23bc 1abf 860e 05bf
000001f0: 17a7 07bf bc11 2ebf bd12 6b3e dcfb 383b
00000200: 0cfb 37bd 0e93 273d 022d 2c40 9132 6c3f
00000210: 2753 51be 8938 f0be 58d6 1140 f9b2 f63d
00000220: 1c4b a1bc 7be6 9fbc 9c43 42bf 5456 4e40
00000230: 37fe b0be 719c 843e ff35 143f c38d 86bd
00000240: 58a7 663c 2130 5e3e 28e3 133f 6b64 7f3e
00000250: a294 b83e 27c3 d0bf 2225 343f 851b e3be
00000260: 96d6 48bf b354 bbbe 25d9 ec3e f7f5 7bbf
00000270: 686a 8fbf d6ce 813f 67ab ac3f 2195 64bf
00000280: a1b5 87bf 939e a2be 8a86 0fbf 3908 6e3f
00000290: bbe2 63bf 68f9 013f 9934 48bf 19ff b33e
000002a0: 0d21 debe 7e69 0fbf c085 80bf fc30 09bf
000002b0: 57ee 74bf ffe5 a2bf efaf 94bf f82c 42bf
000002c0: 70e8 a8bc 8d47 453c 5faf 08bd bbfc 90bd
000002d0: ee2a 3040 e9c0 663f 4672 80be 23e0 3abf
000002e0: 6dec 2c40 f8db c93e d254 393d b6cb 9dbd
000002f0: f706 51bf fb8b 3440 74a9 1cbf 0461 163e
00000300: 9780 3d3f 9855 b3bc 30e6 5c3d 5547 373e
00000310: e04f a23e 576f 65bd e4c5 553e 9f47 4a3e
00000320: b9ac 5cbf 23fe 733e fa12 89bc 0aa9 37bc
00000330: 54ce 5bbd 1161 2440 570b 663f d182 bbbe
00000340: dbc8 39bf a556 3640 7de5 803e 2184 27bc
00000350: 9c4a 45b9 8ce9 44bf e253 3040 c853 01c0
00000360: 9cc4 373e 78d1 643f fd20 e83c 5a3f 3dbc
00000370: 81c7 313e da5f 8f3e 0ab4 c43d e9af 193e
00000380: a2f6 193e b74e d03f e216 b1be 0a75 8abe
00000390: 0642 39bc d2e2 043f 571f 80bf c9b6 95bf
000003a0: 2786 a73f f036 b83f c3b1 24bf 66fd 73bf
000003b0: bf59 aabd 1243 44bd 6765 fa3f 1651 bebf
000003c0: 5e2c 3a3f 5753 97be ea68 4a3d 59ab 103d
000003d0: 8c2c b9bd a212 55bf 472b 9dbf fcc6 cfbe
000003e0: 2328 05bf c592 fcbe 3fa0 12bf b525 85bf
000003f0: 30d0 8e3d 516a dabb aac0 0bbe 220e 3b40
1.2456977 -0.379245 -0.51141274 -0.76649106 0.1505241 -0.7745668 -0.99166125 1.5215956
0.3867334 -0.8283607 -0.6364944 -0.32762584 -0.47916436 0.8088882 -0.98746026 0.567909
-0.9722425 0.43172517 -0.71051866 -0.44211367 -0.642152 -0.5301388 -0.98666567 -1.0774057
-0.5769116 1.1880218 -0.4260775 -0.4064577 -1.1282415 0.27467406 -0.92043495 -1.2696867
0.84172434 0.8211959 -1.081461 -0.61078304 -0.78890187 -0.9970796 0.9469369 -0.9926683
0.21091256 -1.091235 0.6781799 -0.9806669 -0.90147704 -0.9583841 -0.73653793 -1.0403666
-1.30988 -0.8278338 2.0328667 -0.4271772 -0.6117709 0.0052527133 0.51500344 -1.3672409
-1.2222235 -0.11089273 1.7852788 -0.6617347 -0.7629341 -0.1775736 -0.19720331 2.3831942
-2.0355203 0.55887884 -0.54515666 -0.008046289 -0.05567018 -0.26424834 -0.91873074 -0.76293856
-1.1287966 -0.921303 -0.6281557 -0.75408006 0.06738462 0.016103739 -0.0070244838 -0.045049742
2.8910632 1.0737625 -0.44013214 -0.9613145 2.224471 0.24318804 0.06445765 0.029728053
-1.0160064 2.9403908 -1.9809353 0.27702904 0.6287359 -0.05894123 0.028447138 0.11314777
0.21544506 0.14269128 0.17904893 0.14583927 2.3130229 -0.6259352 0.0195173 -0.049349636
0.73897654 -1.0790007 -1.4965247 1.0671793 2.0071838 -0.76046205 -1.7000755 -0.03846337
-0.014168634 1.892806 -1.4457943 0.44018686 -0.7702714 -0.016417798 -0.074180305 -0.0073462045
-1.0041329 -1.5086536 -0.60443324 -0.51975286 -0.52989334 -0.6799581 0.22956367 0.0028226292
-0.04491715 0.040911727 2.690247 0.9226466 -0.20441876 -0.46918133 2.2787075 0.12045855
-0.019689135 -0.019519081 -0.75884414 3.224019 -0.3456895 0.25900605 0.5789489 -0.06570008
0.014077984 0.21698047 0.5776849 0.2494065 0.36050898 -1.6309556 0.7036916 -0.44356933
-0.7845243 -0.36588058 0.46259418 -0.9842219 -1.1204348 1.0141246 1.3489808 -0.8929005
-1.0602304 -0.31761608 -0.56064665 0.92981297 -0.8901784 0.5077119 -0.7820526 0.35155562
-0.4338459 -0.56020343 -1.0040817 -0.5359037 -0.9567618 -1.2726439 -1.1616191 -0.75849867
-0.020618647 0.012040985 -0.033370372 -0.070794545 2.7526202 0.9013811 -0.25087184 -0.72998255
2.7019303 0.39425635 0.045246907 -0.077048704 -0.8165125 2.8210437 -0.61196065 0.14685446
0.7402434 -0.0218914 0.05393046 0.17898305 0.31701565 -0.056014385 0.2087627 0.19753884
-0.86201054 0.23827414 -0.016732682 -0.011209736 -0.053663567 2.5684245 0.89861053 -0.36623242
-0.72572106 2.8490384 0.25175086 -0.010224373 -0.00018815178 -0.76918864 2.7551198 -2.0207386
0.17946094 0.89382124 0.028336043 -0.011550749 0.17361261 0.28002816 0.09604652 0.1500851
0.15035489 1.6274022 -0.3458777 -0.2704242 -0.011307245 0.519086 -1.0009564 -1.1696407
1.3087815 1.4391766 -0.6433374 -0.9530853 -0.08317899 -0.047915526 1.9562196 -1.4868495
0.7272395 -0.2955577 0.04941646 0.03531966 -0.090417 -0.83231556 -1.2278832 -0.405815
-0.5201437 -0.49330726 -0.57275766 -1.0402132 0.06973302 -0.006665506 -0.13647714 2.9227376

network.5.bias f4 [25]
00000000: 5490 a33e d98c 9f3e 0944 a43e cab8 1dbb
00000010: bfc3 f63e e679 7cbc 346d a93e 021d c9ba
00000020: c001 1b3c e296 d53e 93f4 5abc 5bfa 8fbc
00000030: 9e90 883c 890a 28bd 5d7f f7bc 1fcb c93e
00000040: 3b46 bc3b 1832 ac3c 9502 8a3e df76 8dbc
00000050: c6b6 963e c925 2abc 83af 963e 7417 0cbc
00000060: a530 853e
0.3194605 0.31162146 0.32083157 -0.0024066442 0.48196217 -0.015409922 0.33091128 -0.0015343728
0.009460866 0.41716677 -0.013363975 -0.017575433 0.016670521 -0.041025672 -0.030212099 0.39412782
0.005745677 0.02101998 0.26955095 -0.017268596 0.2943632 -0.010384985 0.2943078 -0.008550514
0.26013675

network.8.weight f4 [2, 25]
00000000: 2ac4 50be e0f0 a9be 545d 31be cd62 933d
00000010: 2d7a 30be 262f f73d 9d5e 7dbe 49f2 d7bc
00000020: b2f8 07be 97b4 60be 4ff3 2f3e 6c52 5a3e
00000030: 9037 413d b446 c93d e317 1f3e 13a7 66be
00000040: 803a ffbc 8add 993d 736a 87be 7cd4 a83d
00000050: 63ec a6be 704c ff3d 5fe7 3dbe 18d2 86bb
00000060: a1c9 d2be a5b8 8a3e 5e23 a93e 3e14 823e
00000070: c24c 8a3a 8e92 dd3d c2fb e13c f934 d43e
00000080: 2e9e 81bd 4154 73be 28b8 2d3e 8fb7 0e3d
00000090: 50c2 ca3d 5d26 54bd 72ee 3b3d 1279 8b3d
000000a0: 9c5a cb3d 8d4f 04be dea4 95bc 1123 153e
000000b0: dcae b3bb 0cde 8c3e 1db6 813d 7b4f 793e
000000c0: 5f87 e8bd fd17 183e
-0.2038733 -0.33191586 -0.17320758 0.07196579 -0.17234106 0.1206954 -0.24743123 -0.026360648
-0.13278463 -0.2194389 0.17182659 0.21320504 0.04717213 0.09827939 0.15536456 -0.22524671
-0.031155825 0.07512958 -0.26448402 0.08243653 -0.32602224 0.12465751 -0.18545292 -0.0041144006
-0.41169456 0.27093998 0.33034796 0.2540607 0.001055144 0.10818969 0.027585868 0.41446665
-0.063289985 -0.23762609 0.16964781 0.034843024 0.099003434 -0.0517944 0.045881696 0.06810202
0.09929392 -0.12920971 -0.018267091 0.14564158 -0.0054834913 0.27513158 0.063335635 0.24346726
-0.11353945 0.14852901

network.8.bias f4 [2]
00000000: 90db 003f 5db5 3abe
0.50335026 -0.18233247
