model/mlp.pt (torch, 56965 bytes, 10 tensors)

network.0.weight f4 [50, 108]
0	0x3d245eda	0.04012952
1	0xbd662fe3	-0.056198012
2	0x3e37d9fb	0.17954247
3	0xbe843ebe	-0.25829118
4	0x3e21ed63	0.15813212
5	0x3d84a93c	0.064775914
6	0xbd8d5256	-0.0690047
7	0xbdec3825	-0.11534146
8	0x3e65bf1f	0.22436188
9	0x3d7259de	0.059167735
10	0x3e16b054	0.14715701
11	0xbe916303	-0.28395852
12	0xbecb65b9	-0.39726046
13	0x3d064779	0.032783005
14	0x3e5fc5f2	0.21852854
15	0xbf2445bc	-0.64168906
16	0xbd5dd1e7	-0.054155257
17	0x3dc98d20	0.098413706
18	0x3eaa4fae	0.33263916
19	0x3eb33ae3	0.35005865
20	0xbe6363d9	-0.22206058
21	0xbe8d47aa	-0.27593738
22	0x3ee4f6e7	0.44719622
23	0xbdbc9b43	-0.09209301
24	0x3d2ec416	0.04266747
25	0xbd6d8967	-0.057992365
26	0xbcfefacd	-0.03112545
27	0xbdabb1ce	-0.08383523
28	0x3e279618	0.1636585
29	0xbe230f42	-0.15923789
30	0x3e4db03f	0.20086764
31	0xbd147add	-0.036249984
32	0xbebe8dd9	-0.37217596
33	0xbe17a818	-0.14810216
34	0x3d90b510	0.07065785
35	0x3e90f151	0.2830911
36	0x3e435c18	0.190781
37	0xbda5f4ba	-0.081033185
38	0xbd8dc7c0	-0.06922865
39	0xbe2ae1ef	-0.1668775
40	0x3d9daa96	0.07698552
41	0x3d9ca9af	0.07649552
42	0xbdeeb7a4	-0.116561204
43	0xbeda3126	-0.42615622
44	0x3e8f446d	0.27981892
45	0x3e4c531a	0.19953576
46	0x3d9a5171	0.07535065
47	0x3f1e2f78	0.6179118
48	0xbe782a1d	-0.24234815
49	0xbec1aa40	-0.37825203
50	0x3d84042f	0.064461105
51	0xbe270b66	-0.16312942
52	0x3ec02c67	0.37533876
53	0xbe847aef	-0.2587504
54	0x3e960638	0.2930162
55	0xbea59ac4	-0.3234464
56	0xbe1f16ba	-0.15536013
57	0x3e0a4950	0.13504529
58	0x3b0a8b03	0.0021139986
59	0xbbbd9409	-0.0057854694
60	0xbeae7236	-0.3407151
61	0x3e44918d	0.19196148
62	0xbe5adcef	-0.21373342
63	0xbc9b584a	-0.018962998
64	0x3dd6fa32	0.1049694
65	0xbd9c2dc3	-0.07625916
66	0xbe57e9f5	-0.21085341
67	0x3e4d8989	0.20071997
68	0x3e963e49	0.29344395
69	0x3ec78c3a	0.38974172
70	0x3e1074bd	0.14107032
71	0x3e978bf7	0.29598972
72	0x3ead0761	0.33794692
73	0x3ebf48aa	0.37360126
74	0x3e68195c	0.22665924
75	0xbdfd36e9	-0.12363989
76	0xbe7b5069	-0.24542393
77	0xbf03b6d3	-0.5145084
78	0xbeb0f4e6	-0.34561843
79	0xbe8d6802	-0.27618414
80	0x3e42d437	0.19026266
81	0x3e559878	0.20858943
82	0x3e811641	0.2521229
83	0x3e60643f	0.21913241
84	0x3d128fa5	0.03578152
85	0xbec72719	-0.38897017
86	0x3f1903c1	0.59771353
87	0x3d643adc	0.055720195
88	0xbec3cf96	-0.38244313
89	0xbda59b46	-0.08086257
90	0xbe825ebd	-0.25462905
91	0x3e83589a	0.25653535
92	0x3ee15735	0.44011846
93	0xbf037413	-0.5134899
94	0x3e02319a	0.12714234
95	0x3e350426	0.17677364
96	0x3eae3167	0.34022066
97	0x3e042791	0.12905718
98	0xbec6e298	-0.38844752
99	0xbdbf38cf	-0.09337007
100	0x3ec55785	0.38543335
101	0x3ed63153	0.41834506
102	0xbd59d43f	-0.05318093
103	0x3c79a11e	0.015236167
104	0x3e868693	0.26274547
105	0xbc92c846	-0.017917763
106	0xbde13e2e	-0.10998188
107	0x3edac4db	0.42728314
108	0xbe24c570	-0.16090941
109	0xbea3961d	-0.31950465
110	0xbd0282ac	-0.0318629
111	0xbf2cf71b	-0.67564553
112	0xbe7cb209	-0.2467729
113	0xbe9aff20	-0.3027277
114	0xbcb5fc7a	-0.022215117
115	0xbe3bb351	-0.18330123
116	0xbe1aed13	-0.15129499
117	0xbd82eec5	-0.06393198
118	0x3d19968e	0.037497096
119	0x3d2cf12d	0.04222219
120	0x3dd2b8f1	0.10289181
121	0xbde8f748	-0.1137529
122	0x3e02870b	0.12746827
123	0xbd962439	-0.07331128
124	0x3dfd5a9b	0.12370797
125	0x3e8c0b6d	0.27352467
126	0x3db670e7	0.08908253
127	0xbe3892cc	-0.18024749
128	0x3c1a4c7f	0.009417652
129	0xbe9d029c	-0.30666053
130	0xbeb81a30	-0.3595748
131	0x3e29438e	0.16529676
132	0xbd9a675a	-0.07539244
133	0xbeac7777	-0.33684894
134	0x3d4a8159	0.04943976
135	0x3e6bac1f	0.23014878
136	0x3e013b64	0.12620312
137	0xbdfc5153	-0.12320199
138	0x3e0318bb	0.12802403
139	0xbe03983f	-0.12851046
140	0xbf56d87e	-0.8392409
141	0xbdc263f4	-0.09491721
142	0x3e3ce9f8	0.18448627
143	0x3d141f46	0.036162637
144	0x3ec4f184	0.38465512
145	0x3dfb2e8d	0.12264738
146	0xbe069238	-0.13141716
147	0xbe1c3564	-0.15254742
148	0x3deabaf7	0.11461442
149	0x3e428c68	0.18998873
150	0x3e87eaef	0.26546428
151	0xbe93ed42	-0.2889195
152	0xbecb7ac4	-0.397421
153	0xbc2ea138	-0.010658555
154	0x3ee7ddbb	0.45286354
155	0xbcd350b3	-0.025795316
156	0xbe1151f6	-0.14191422
157	0xbedf4c85	-0.43613067
158	0xbcc5dbe9	-0.024152713
159	0x3ddb25cd	0.10700569
160	0xbcabf613	-0.02099136
161	0xbe97239e	-0.2951936
162	0x3c504086	0.012710696
163	0x3e42072b	0.18948047
164	0xbed3f485	-0.4139749
165	0x3e4c2f50	0.19939923
166	0x3eae9e74	0.34105265
167	0x3d49fd38	0.049313754
168	0x3cae6fc8	0.021293536
169	0xbed15ecc	-0.40892637
170	0xbcc0398a	-0.023464937
171	0x3d749ca9	0.059719715
172	0x3dc0e5b1	0.0941881
173	0x3d66d75b	0.056357723
174	0x3de66cdc	0.11251232
175	0xbd8c3fb8	-0.06848091
176	0xbe5df1b2	-0.2167423
177	0xbc350dad	-0.011050624
178	0xbd6b6a4a	-0.057474412
179	0xbf03b36c	-0.5144565
180	0x3caa1375	0.020761231
181	0x3d2e2547	0.04251602
182	0xbdf3918a	-0.11892994
183	0xbd9de63b	-0.077099286
184	0xbec9a9d0	-0.3938737
185	0x3e2c69df	0.16837262
186	0xbf2de9f6	-0.6793512
187	0xbe86f3c6	-0.2635786
188	0x3de29679	0.11063857
189	0x3d8a1156	0.06741588
190	0x3d677387	0.05650666
191	0x3e4dbc7a	0.2009143
192	0x3e21b111	0.15790202
193	0x3db2ba46	0.08726935
194	0xbe431dab	-0.19054286
195	0x3e27dbfd	0.16392513
196	0x3e3877bc	0.18014425
197	0xbf14ed7d	-0.5817488
198	0xbf4449c4	-0.7667506
199	0x3ee17ffa	0.4404295
200	0x3ee27116	0.44226903
201	0xbe2916ac	-0.16512555
202	0x3e126725	0.14297159
203	0x3e55805e	0.2084975
204	0xbdd4f042	-0.10397388
205	0xbe84c581	-0.25931934
206	0xbec8e0fc	-0.3923415
207	0xbdb459de	-0.08806203
208	0x3dce7e62	0.10082699
209	0x3e0342a1	0.12818386
210	0xbf0012d1	-0.5002871
211	0x3d7f7888	0.062370807
212	0xbcbfc682	-0.023410086
213	0xbd0cfc60	-0.03442037
214	0xbe8da9f2	-0.2766872
215	0xbe13fdfe	-0.14452359
216	0x3e84e801	0.25958255
217	0x3d523b4d	0.051326085
218	0xbdac0e9b	-0.08401223
219	0xbca6d48e	-0.020365026
220	0xbe4fe24a	-0.20301166
221	0x3d3b241c	0.045688733
222	0x3e5f7f42	0.21825889
223	0xbe27eded	-0.16399355
224	0x3dbf774c	0.09348926
225	0x3e0661cf	0.13123249
226	0x3d91250b	0.070871435
227	0x3d44f796	0.04808768
228	0xbeb31e5d	-0.34984103
229	0xbd273bcc	-0.04082851
230	0x3d49e841	0.04929376
231	0x3e762a9d	0.24039693
232	0xbe1a218c	-0.1505186
233	0xbe5719a9	-0.21005882
234	0x3d74a1a1	0.059724454
235	0x3f3544bf	0.70808023
236	0x3e4c7974	0.19968206
237	0x3dd39386	0.10330872
238	0x3dbe7ce1	0.093011625
239	0xbb752c1a	-0.003741032
240	0x3d5f15a1	0.054463986
241	0x3eb0e0ce	0.34546512
242	0x3d1aa5e0	0.037755847
243	0xbe9ae337	-0.30251476
244	0xbeac10c2	-0.33606535
245	0x3dea5385	0.11441711
246	0xbea8f9b3	-0.33003005
247	0xbeea13d9	-0.45718268
248	0x3df76a8b	0.12080868
249	0x3da72a82	0.081624046
250	0xbe5a1f84	-0.21301085
251	0xbca9a334	-0.020707704
252	0x3ed84d4f	0.42246482
253	0xbe0879b3	-0.13327675
254	0x3e651c1e	0.22374007
255	0x3e542350	0.20716596

network.0.bias f4 [50]
0	0xbc4b635e	-0.012413828
1	0xbc8b5121	-0.017006459
2	0xba606249	-0.00085595675
3	0xbde7b44b	-0.11313685
4	0x3d10ac50	0.03532058
5	0xbd3f056b	-0.046636026
6	0xbdee9ba3	-0.11650779
7	0xbd491f54	-0.049102142
8	0x3e141e38	0.14464653
9	0x3c365744	0.011129204
10	0xbc059afd	-0.008154628
11	0x3da688f8	0.081315935
12	0xbc982543	-0.018572455
13	0x3d6033b8	0.054736823
14	0x3d92873c	0.071547
15	0x3d1ff7a3	0.039054524
16	0xbd9421af	-0.07232987
17	0x3d378f28	0.04481426
18	0xbc31a207	-0.010841853
19	0xbd906b6f	-0.07051741
20	0xbc7b12ed	-0.0153243365
21	0x3d90d54e	0.07071935
22	0x3c589674	0.013219465
23	0xbdec08d4	-0.11525121
24	0xbe12723d	-0.14301391
25	0x3d6321bf	0.055452105
26	0x3d7a5cd6	0.06112369
27	0xbc1d6039	-0.009605461
28	0xbcdab91d	-0.026699597
29	0x3b8ecdfb	0.004358051
30	0x3df45c38	0.11931652
31	0x3d116d60	0.0355047
32	0xbbc47f45	-0.005996617
33	0xbdad3512	-0.08457388
34	0xbd59db11	-0.053187434
35	0xbc9bb552	-0.019007359
36	0x3dd15a9b	0.1022236
37	0xbd7d5961	-0.061852816
38	0x3c31a63f	0.010842859
39	0x3d7c921e	0.061662786
40	0xbb9200fc	-0.0044556838
41	0xbe1b5fab	-0.15173213
42	0xbcaf7d3c	-0.021422021
43	0x3d24bd12	0.040219374
44	0xbe28a51c	-0.16469234
45	0xbd86c83c	-0.065811604
46	0xbca95d1c	-0.02067428
47	0x3d243d8b	0.040097754
48	0xbd91c09a	-0.07116814
49	0x3c3bfa4e	0.0114732515

network.2.weight f4 [50, 50]
0	0x3e55ef9a	0.20892182
1	0xbd0185d8	-0.031621784
2	0xbd3aef20	-0.045638204
3	0x3e2f1660	0.17098379
4	0x3ce9ef26	0.028556418
5	0x3dc7db98	0.09758681
6	0xbe38f805	-0.18063362
7	0x3e8ef346	0.27919978
8	0x3e360cd9	0.17778338
9	0xbf1b1554	-0.6057942
10	0xbf087957	-0.5331015
11	0x3e7fcb16	0.24979815
12	0xbea3d47d	-0.31998053
13	0xbe8fcbb9	-0.28085116
14	0xbe3b0479	-0.18263425
15	0xbe0afafc	-0.13572305
16	0xbd68f155	-0.056870777
17	0x3e461231	0.19342877
18	0x3e870251	0.26368955
19	0x3d91b6b7	0.07114928
20	0x3da0c426	0.07849912
21	0xbdf30064	-0.11865309
22	0xbf097768	-0.53697824
23	0xbc6ea2d4	-0.014565188
24	0x3f3e6888	0.7437825
25	0x3e82abe6	0.25521773
26	0x3ec887c5	0.39166084
27	0xbe2a3a69	-0.16623844
28	0xbe3f450e	-0.18678686
29	0xbe41787e	-0.1889362
30	0xbd1d0642	-0.038336046
31	0x3d91cb96	0.07118909
32	0x3e43d046	0.19122419
33	0x3d268da2	0.040662415
34	0x3dad1ab0	0.08452356
35	0xbec4c5d3	-0.38432178
36	0xbeeec629	-0.4663556
37	0xbd374f36	-0.044753276
38	0x3df76461	0.12079693
39	0xbe014142	-0.1262255
40	0x3e082eb4	0.13299066
41	0xbeee7fea	-0.46581966
42	0xbe95b9d9	-0.29243353
43	0x3c3a7535	0.011380483
44	0x3edbc132	0.42920834
45	0xbe8de84c	-0.2771629
46	0x3e23de82	0.16002849
47	0x3d9249fd	0.071430184
48	0xbd5db7ab	-0.054130238
49	0x3e8af70c	0.27141607
50	0x3d1d7977	0.038445916
51	0x3d7bdfd5	0.06149276
52	0x3d503b9d	0.0508381
53	0x3f1dbcc0	0.61616135
54	0x3c03c5b8	0.008042745
55	0x3dbf5931	0.09343184
56	0xbe65ed81	-0.22453882
57	0x3e508b55	0.20365651
58	0x3d0e481b	0.034736734
59	0xbc10cfe1	-0.008838625
60	0xbe9adc48	-0.30246186
61	0x3e937b26	0.28804892
62	0x3e513575	0.20430548
63	0xbedb79f8	-0.42866492
64	0xbe549f45	-0.20763882
65	0xbdabc876	-0.08387844
66	0x3dd37894	0.10325733
67	0xbd6df556	-0.0580953
68	0xbca072f6	-0.019586068
69	0xbe1833bd	-0.14863487
70	0x3ef44486	0.4770853
71	0xbe8e036c	-0.27736986
72	0xbe64a76f	-0.22329496
73	0xbe019dd3	-0.12657861
74	0x3e730efa	0.23736182
75	0x3e85af7b	0.26110443
76	0x3e307f2c	0.17236012
77	0xbebf069b	-0.37309727
78	0x3d816a0b	0.06319054
79	0xbe8d08ae	-0.27545685
80	0x3e5f47ff	0.21804808
81	0xbe20b775	-0.15694983
82	0x3d02220b	0.031770747
83	0x3e5cf020	0.21575975
84	0xbf20b446	-0.62775075
85	0x3dd57939	0.10423512
86	0xbdb8b5bc	-0.09019038
87	0x3e62f61d	0.22164197
88	0xbed56a22	-0.41682535
89	0x3e8db1dd	0.2767476
90	0x3e174f63	0.14776377
91	0xbf0edaad	-0.5580242
92	0xbdc853fe	-0.09781645
93	0xbde2b520	-0.11069703
94	0x3e061a5f	0.13095997
95	0xbea11f23	-0.31469068
96	0xbe0c2f22	-0.13689855
97	0x3d7aeebc	0.06126283
98	0x3deb4e3d	0.11489532
99	0x3e1db1b9	0.15399827
100	0x3da5b404	0.08090976
101	0xbdf11c6e	-0.11773001
102	0x3de1f023	0.110321306
103	0xbdcf6af9	-0.10127825
104	0x3c90d9c2	0.01768196
105	0xbd628f71	-0.055312578
106	0x3da478be	0.08030842
107	0xbe165e4b	-0.14684407
108	0xbd2566d7	-0.04038128
109	0xbe0978dc	-0.1342501
110	0xbe16663a	-0.14687434
111	0x3ddbf996	0.10740964
112	0xbe04fcef	-0.12987112
113	0x3dac7da5	0.08422402
114	0xbf4c05a1	-0.7969609
115	0xbe29083e	-0.1650705
116	0x3e000890	0.12503266
117	0x3b178cdc	0.002312473
118	0x3e4bad75	0.19890387
119	0x3e8ad6f4	0.2711712
120	0x3e12fd2f	0.14354394
121	0xbe3ed467	-0.18635713
122	0xbf7e9837	-0.9945101
123	0x3ccffea6	0.02538998
124	0xbda434d0	-0.08017886
125	0x3ea5dd9c	0.32395637
126	0x3dbb2599	0.091380306
127	0xbf0d3984	-0.55165887
128	0xbeadeb2d	-0.33968487
129	0xbd5d56be	-0.054037802
130	0x3ebbe025	0.36694446
131	0xbecc6966	-0.39924163
132	0xbe6d906e	-0.23199627
133	0xbc9683ef	-0.018373458
134	0xbe475286	-0.19465074
135	0xbe2aabd0	-0.16667104
136	0xbe98f8ac	-0.29877222
137	0x3eaf773d	0.3427066
138	0x3e5d2cca	0.21599117
139	0x3e240dea	0.16020933
140	0xbe5e1421	-0.21687366
141	0xbdf3738d	-0.11887274
142	0xbc131fc6	-0.008979743
143	0xbd4bc8a2	-0.049751885
144	0xbe27b459	-0.16377391
145	0xbea2ab77	-0.31771442
146	0x3de11749	0.109907694
147	0xbe147b0e	-0.14500067
148	0x3e8d2d55	0.27573648
149	0x3ed08e65	0.40733638
150	0x3ce4d295	0.027932445
151	0x3c8670a9	0.016411142
152	0xbec7421d	-0.38917628
153	0x3ee041c6	0.4380018
154	0x3da01783	0.078169845
155	0x3e6283b1	0.22120549
156	0x3e095db4	0.13414651
157	0xbd329a29	-0.04360405
158	0xbd428527	-0.047490265
159	0xbc403c93	-0.011733192
160	0xbed61d33	-0.41819152
161	0x3d5910b8	0.05299446
162	0xbd98e758	-0.07466
163	0x3d33ebcb	0.04392604
164	0xbef688ba	-0.4815119
165	0x3ae10956	0.001716892
166	0x3da78a14	0.08180633
167	0x3e1cac6f	0.15300153
168	0x3d9db4d1	0.077005036
169	0xbc8df939	-0.017330753
170	0x3ee020b7	0.4377496
171	0xbf0c7fc1	-0.54882437
172	0xbdff77ea	-0.12474044
173	0xbdd4cece	-0.10391007
174	0x3f21f305	0.63261443
175	0x3c8f4fe2	0.017494146
176	0xbe0efbad	-0.13963194
177	0xbf170e74	-0.5900643
178	0xbe90f4a8	-0.28311658
179	0x3dcc2b6d	0.0996922
180	0xbc446f7e	-0.011989472
181	0xbe70529b	-0.23469011
182	0xbdb947fc	-0.09046933
183	0xbdb81908	-0.08989149
184	0xbe8080cf	-0.25098273
185	0xbd7d4df8	-0.061841935
186	0xbdfdecd2	-0.123986855
187	0x3ecd78f4	0.40131342
188	0x3e683882	0.22677806
189	0x3e6025e4	0.21889454
190	0xbdb3d9fe	-0.08781813
191	0xbec60e4b	-0.3868278
192	0xbd0d4495	-0.034489233
193	0x3da73a23	0.081653856
194	0x3e583810	0.21115136
195	0xbe0b09e7	-0.13577996
196	0x3e9aa500	0.3020401
197	0xbc585f2b	-0.013206284
198	0x3d3cb460	0.046070457
199	0x3e8769b7	0.26447842
200	0x3e945476	0.2897069
201	0xbf3f610b	-0.7475745
202	0xbd7c809c	-0.06164609
203	0x3ec53055	0.38513437
204	0xbdcb804e	-0.099365816
205	0x3e50167c	0.20321077
206	0x3dac4cd6	0.08413093
207	0x3e53efc2	0.20696929
208	0xbde2c43d	-0.11072586
209	0xbd1c6a80	-0.038187504
210	0xbe7aff7d	-0.24511524
211	0x3e6cc8ad	0.23123427
212	0x3dfb0bcd	0.1225811
213	0xbe0e168f	-0.13875793
214	0xbf01034c	-0.50395656
215	0xbe83748d	-0.2567486
216	0x3dc3e73f	0.09565591
217	0x3d4dcf15	0.050246317
218	0x3ebcf7e4	0.36907876
219	0xbd7f48eb	-0.0623254
220	0x3dd5fdfa	0.10448833
221	0x3d64c780	0.05585432
222	0xbd4b58ae	-0.04964512
223	0x3e9136f7	0.28362247
224	0x3ee2ba72	0.4428287
225	0x3dd41cda	0.103570655
226	0x3e3036ec	0.17208451
227	0xbedd64c7	-0.4324095
228	0x3c367385	0.01113594
229	0xbe15b889	-0.14621176
230	0xbf00f110	-0.5036783
231	0xbeaf36da	-0.34221536
232	0x3e4ceb01	0.20011522
233	0x3de43f06	0.11144833
234	0xbe5f2979	-0.21793164
235	0x3c24ad71	0.010051117
236	0xbe38448a	-0.17994896
237	0x3df80de5	0.12112025
238	0xbf4e451c	-0.805742
239	0x3e2cbe78	0.16869533
240	0x3eb62159	0.35572317
241	0xbdef4d3c	-0.11684653
242	0x3d30b7a4	0.043143883
243	0x3d5deae1	0.054179076
244	0x3ea3957f	0.31949994
245	0xbd587936	-0.05284997
246	0x3e477ce8	0.19481242
247	0x3e00facc	0.12595671
248	0x3df783b3	0.120856665
249	0xbd0dc457	-0.034611072
250	0xbcb2da2f	-0.021832554
251	0x3e6eb716	0.23312029
252	0x3dadbada	0.08482905
253	0x3ed5ad00	0.4173355
254	0xbe905ec0	-0.2819729
255	0x3e9d22ad	0.30690518

network.2.bias f4 [50]
0	0x3ce37c1d	0.027769143
1	0x3d71d428	0.05904022
2	0xbc734233	-0.014847326
3	0xbb966663	-0.004589842
4	0xbdc7914a	-0.097445086
5	0x3d318aca	0.04334525
6	0xbeeec3ef	-0.4663386
7	0xbd3e85c2	-0.04651428
8	0xbc7e6df2	-0.015529143
9	0xbd0e7f26	-0.034789227
10	0xbdf8cae3	-0.121480726
11	0x3db899b5	0.09013692
12	0x3d7ee366	0.062228583
13	0x3ca27bcc	0.019834422
14	0x3d13d029	0.03608719
15	0x3c2dc35b	0.010605658
16	0xbe360bdf	-0.17777966
17	0xbd1e15ef	-0.038595136
18	0xbeb5fbd6	-0.35543698
19	0xbdc23a39	-0.09483761
20	0x3d5c0ced	0.053723264
21	0xbdace819	-0.084427066
22	0x3d1bc3fe	0.03802871
23	0x3d4a76bd	0.049429644
24	0xbd6cd7d0	-0.057823002
25	0x3cf80caa	0.030279476
26	0x3dcd9bf1	0.10039509
27	0xbe19e39e	-0.15028235
28	0xbe1ef9c4	-0.15524966
29	0xbe0685d1	-0.13136984
30	0xbdac2133	-0.0840477
31	0xbdc9dded	-0.09856782
32	0x3d33c2db	0.043887
33	0xbe0d4283	-0.13794903
34	0xbd25185a	-0.040306427
35	0xbd671ced	-0.05642407
36	0xbe47f913	-0.19528608
37	0xbe667f07	-0.22509395
38	0xbd8b01d5	-0.06787459
39	0x3de69dbc	0.11260554
40	0xbd93df5c	-0.07220337
41	0x3c7ab42f	0.015301748
42	0x3c5243e8	0.012833573
43	0xbd239f96	-0.039947115
44	0x3dbc5e2a	0.09197648
45	0xbddd2248	-0.10797554
46	0xbdd9a74d	-0.10627613
47	0xbd147810	-0.036247313
48	0x3d1523cc	0.03641109
49	0x3bbd1a82	0.0057709822

network.5.weight f4 [50, 50]
0	0x3e9ef917	0.31049415
1	0x3e20eb52	0.15714768
2	0x3e6806d4	0.22658855
3	0xbd97b897	-0.074082546
4	0x3f3ffe5a	0.74997485
5	0x3ecff4b6	0.40616387
6	0xbe12f566	-0.14351425
7	0x3ed04baa	0.40682727
8	0x3e8d69d4	0.27619803
9	0x3e189509	0.14900602
10	0xbf6103d3	-0.8789646
11	0x3ee29fc0	0.44262505
12	0x3f0af00c	0.5427253
13	0xbdbaf8aa	-0.0912946
14	0xbc3946a0	-0.011308342
15	0xbeb49fe2	-0.3527823
16	0x3e1d61e9	0.15369381
17	0xbb6b7426	-0.0035927384
18	0x3f16a3fd	0.58843976
19	0xbd6494c6	-0.055805944
20	0x3b038d50	0.0020073242
21	0x3da43ad9	0.08019037
22	0x3e223089	0.15838827
23	0xbdeb4fc8	-0.114898264
24	0xbda5ce24	-0.08095959
25	0x3e3c0c72	0.18364123
26	0x3e5f4b48	0.21806061
27	0x3f8f04b7	1.1173314
28	0x3f028c09	0.50994927
29	0x3f692a5c	0.9108026
30	0xbb839846	-0.004015955
31	0x3e03bdc5	0.1286536
32	0xbd971844	-0.07377675
33	0x3ea469c1	0.32111934
34	0xbd8afdcd	-0.0678669
35	0x3d82807b	0.06372162
36	0x3c7d3e2f	0.01545672
37	0xbea00586	-0.31254214
38	0x3c8ac7a9	0.016940909
39	0x3e65f802	0.22457889
40	0xbd9bb22c	-0.07602343
41	0xbe5cc3e5	-0.21559103
42	0x3dcb747b	0.09934326
43	0xbd9d718d	-0.07687674
44	0x3dbf7ad6	0.09349601
45	0x3f01d988	0.5072255
46	0xbf22d1d1	-0.63601404
47	0xbc1a1dc2	-0.009406509
48	0x3dc53bbe	0.096305355
49	0x3d8c467e	0.06849383
50	0xbee90f48	-0.4551947
51	0xbf2f590a	-0.6849524
52	0xbe5d48f8	-0.21609867
53	0xbf320ea7	-0.6955361
54	0xbe0c33f9	-0.13691701
55	0x3c42f24c	0.011898588
56	0xbe6316ae	-0.2217662
57	0xbf0193d5	-0.506162
58	0x3e54bcb6	0.20775113
59	0xbe1ffb51	-0.15623213
60	0xbf277287	-0.6540913
61	0xbcfd2351	-0.03090063
62	0x3eb5913c	0.35462368
63	0xbecc892e	-0.3994841
64	0xbd016235	-0.0315878
65	0xbe009d5b	-0.12560026
66	0x3c2332bf	0.009960829
67	0xbe834ebf	-0.25646016
68	0x3f0a924a	0.5412947
69	0xbf65edd8	-0.89816046
70	0xbc66a71c	-0.014077928
71	0xbeb43a87	-0.35200903
72	0x3e432d81	0.19060327
73	0x3d3f45d7	0.046697464
74	0xbe30e204	-0.17273718
75	0x3ec0b743	0.37639818
76	0x3e752cd7	0.23942886
77	0x3f26f217	0.6521315
78	0x3e3f00f8	0.18652713
79	0x3e7fd40a	0.2498323
80	0x3e3685e0	0.17824507
81	0x3b8ee3ff	0.0043606753
82	0xbf3f060f	-0.7461862
83	0x3f0330da	0.51246417
84	0x3e901e5d	0.28148165
85	0xbebeae07	-0.37242147
86	0xbd99af35	-0.07504121
87	0xbf026e24	-0.5094931
88	0xbf0deec4	-0.5544245
89	0x3f1af4c5	0.6052974
90	0xbf4206ba	-0.75791514
91	0x3dce8f5c	0.100859374
92	0xbd6a748f	-0.057240065
93	0xbd60bc4c	-0.054867074
94	0xbee8924f	-0.45424125
95	0x3c6c90f1	0.014438854
96	0xbeb54dd0	-0.3541093
97	0xbf4ffff0	-0.81249905
98	0xbda1ec0c	-0.079063505
99	0x3c831d5b	0.016005209
100	0x3f25d6b4	0.64780736
101	0x3d1f7755	0.038932163
102	0x3f8b6267	1.0889405
103	0x3d8b57e2	0.06803872
104	0x3ede05b6	0.43363732
105	0x3f580ef5	0.8439782
106	0x3e2c3d96	0.16820368
107	0x3e754f2f	0.23955987
108	0x3d48f56b	0.049062174
109	0xbeaee368	-0.34157872
110	0xbc9aa1c7	-0.01887597
111	0x3f1426f5	0.57871944
112	0xbe263b48	-0.16233552
113	0x39b0f7e9	0.00033754043
114	0xbf5b1ab3	-0.85587615
115	0x3f3f752f	0.7478818
116	0x3e553759	0.20821895
117	0x3d096c8e	0.03355079
118	0xbe0c5f90	-0.13708329
119	0xbc88d06c	-0.016700946
120	0xbf47b5c1	-0.7801171
121	0x3e672e7a	0.22576323
122	0x3ebd55a8	0.36979413
123	0x3f2b6774	0.6695473
124	0x3e0e3615	0.13887818
125	0xbcea80f4	-0.028625943
126	0xbed89f38	-0.42308974
127	0xbe3c7546	-0.18404111
128	0xbd647670	-0.055777013
129	0x3f174367	0.5908722
130	0xbe3c4564	-0.18385845
131	0xbcb70a10	-0.022343665
132	0xbb3614cf	-0.00277834
133	0xbe862999	-0.26203611
134	0xbe83bf48	-0.25731874
135	0xbaef6f4f	-0.0018267425
136	0xbe46efac	-0.19427365
137	0x3d88ce58	0.06679982
138	0x3de4aa86	0.11165337
139	0x3d81a3a5	0.06330041
140	0x3cc5730e	0.024102714
141	0xbea5a34b	-0.32351145
142	0x3de97653	0.11399522
143	0x3f3710df	0.7151012
144	0xbc684e4b	-0.014178823
145	0x3f0a10b4	0.53931737
146	0x3e760efa	0.2402915
147	0x3cadee02	0.021231655
148	0xbca0aea7	-0.01961453
149	0xbf1e932e	-0.6194333
150	0x3ecd471c	0.40093315
151	0xbd17dda6	-0.037076615
152	0xbedc8c30	-0.43075705
153	0x3d1f97f1	0.038963262
154	0x3f067055	0.52515155
155	0x3eddabfa	0.4329527
156	0x3f2e2a6c	0.6803348
157	0x3ebfa6f3	0.3743206
158	0x3ca67678	0.020320162
159	0xbf852b3f	-1.0403823
160	0xbc0fb17a	-0.008770341
161	0x3f18f9d0	0.59756184
162	0xbfafb6d2	-1.3727667
163	0x3d36422d	0.044496704
164	0x3c7036bc	0.014661487
165	0x3ef2cfa0	0.4742403
166	0x3b957bd5	0.004561881
167	0x3d56bd90	0.052426875
168	0xbefc7f0c	-0.4931568
169	0x3b391e8a	0.0028246962
170	0xbf1eeb51	-0.62077814
171	0x3ee63bd0	0.44967508
172	0x3e1b051e	0.15138671
173	0x3f048308	0.5176244
174	0x3e807d3a	0.2509554
175	0xbe94802b	-0.29004034
176	0xbdb19377	-0.08670705
177	0xbee26651	-0.44218686
178	0xbe0cddff	-0.1375656
179	0x3f2ec63f	0.6827125
180	0xbf5b6dcb	-0.85714406
181	0xbe791250	-0.24323392
182	0x3cf2bba8	0.029630497
183	0xbef68c34	-0.48153841
184	0xbf83ff81	-1.0312349
185	0xbb9e7258	-0.004835408
186	0x3e7091cb	0.23493116
187	0x3e15e911	0.14639689
188	0x3ddf776a	0.10911448
189	0xbed4f144	-0.4159032
190	0xbca2689e	-0.019825276
191	0xbf6f7e7b	-0.9355237
192	0xbe79b865	-0.24386747
193	0x3f63c76e	0.8897618
194	0xbd8d226f	-0.06891333
195	0x3df07371	0.11740769
196	0x3ef0e476	0.47049302
197	0xbd74fdb1	-0.05981225
198	0xbd8e6939	-0.069536634
199	0xbf14e58e	-0.5816277
200	0xbe555809	-0.20834364
201	0xbf45ab53	-0.77214545
202	0xbf097f02	-0.53709424
203	0xbea08594	-0.31351912
204	0x3deb0ee8	0.114774525
205	0xbe17b6c4	-0.14815813
206	0xbea3126b	-0.3184999
207	0xbeb0f206	-0.3455965
208	0x3da5bb86	0.08092408
209	0x3e4dc584	0.20094877
210	0xbf611821	-0.8792744
211	0xbe4d83e9	-0.20069851
212	0x3f64b15f	0.89333147
213	0xbecf9400	-0.40542603
214	0xbdbe6b28	-0.09297782
215	0xbe497723	-0.19674353
216	0xbe8fa45c	-0.28055084
217	0xbed25cb3	-0.4108635
218	0x3f031b72	0.51213753
219	0xbea2ff1e	-0.31835264
220	0xbc8cbf45	-0.017181048
221	0x3da2cfa0	0.079497576
222	0x3aa7c1c4	0.0012798836
223	0xbe80a0c0	-0.25122643
224	0xbe78f5e3	-0.24312548
225	0x3f00258c	0.5005729
226	0x3e9bfa68	0.30464482
227	0x3eeadab7	0.4586999
228	0x3e7a48e3	0.24441867
229	0xbdcd5456	-0.100258514
230	0x3d81ab21	0.063314684
231	0x3cd245b7	0.025668008
232	0xbf400bed	-0.750182
233	0x3ed87a5b	0.4228085
234	0x3dfb5253	0.122715615
235	0xbf146b36	-0.5797609
236	0x3e122692	0.14272526
237	0xbf16ad7f	-0.58858484
238	0xbecaa615	-0.39579836
239	0x3e94bf69	0.29052284
240	0xbe93fe2c	-0.28904855
241	0x3f041a7c	0.5160291
242	0xbdd5bd67	-0.10436516
243	0xbd1d9abd	-0.038477648
244	0x3dba42ef	0.09094798
245	0xbd25a42f	-0.04043978
246	0xbda19dc6	-0.07891421
247	0xbed523e5	-0.41628948
248	0xbf3445b2	-0.70418847
249	0x3c801c73	0.015638566
250	0x3f1f7892	0.6229335
251	0x3ca353cc	0.019937418
252	0x3f0836f8	0.53208876
253	0x3d8c4942	0.0684991
254	0x3e87e449	0.26541355
255	0x3f2b35f7	0.6687922

network.5.bias f4 [50]
0	0xbc906f41	-0.017631175
1	0x3c493c1e	0.012282399
2	0x3c9f5e73	0.019454217
3	0x3c4b64a9	0.012414136
4	0x3ce71f6f	0.02821323
5	0x3ca376b9	0.019954072
6	0x3cd46fcc	0.025932215
7	0xbcde26c6	-0.027118098
8	0x3cecbdc5	0.028899083
9	0xbb49cf5c	-0.0030793762
10	0x3c99d066	0.01877613
11	0x3cc00d13	0.023443734
12	0x3ca558f0	0.02018401
13	0x3cdbd58a	0.026835222
14	0x3cc0aa75	0.02351878
15	0x3ca74a90	0.020421296
16	0x3cc07757	0.023494406
17	0x3c9d453f	0.019198058
18	0x3c30f27f	0.010800003
19	0xbc7d164b	-0.01544721
20	0x3b7c6c4d	0.00385167
21	0xbc90ebba	-0.017690528
22	0x3c56e6f8	0.013116591
23	0x3c8b2947	0.016987456
24	0x3cbc8f06	0.023017418
25	0x3c852df3	0.016257262
26	0x3d11d1d8	0.035600513
27	0x3ca1041b	0.019655278
28	0x3bf05805	0.0073347115
29	0x3cc39e64	0.023879237
30	0x3ceb4b6f	0.028722493
31	0x3d03ba7a	0.03216026
32	0x3cbf5dc4	0.02336014
33	0x3c317919	0.010832095
34	0xbc68b11d	-0.014202383
35	0x3c4c52e9	0.012470939
36	0x3c9593d1	0.01825896
37	0x3c370567	0.011170722
38	0xbbc85c9d	-0.006114556
39	0x3cac8c47	0.021062983
40	0xbc987acb	-0.01861324
41	0xbd0714f4	-0.032978967
42	0x3ce1eb6a	0.027578074
43	0xbc84e61d	-0.016223008
44	0xbba1f877	-0.0049429494
45	0x3cad913f	0.021187423
46	0x3cec6fc7	0.028861893
47	0x3d0e5fca	0.03475932
48	0x3cee3123	0.029076165
49	0xbd30d28d	-0.043169547

network.8.weight f4 [50, 50]
0	0x3e8c23b8	0.27371
1	0xbe601123	-0.21881537
2	0x3dfbdf09	0.122984
3	0x3dd4e886	0.10395913
4	0xbf0bce07	-0.5461125
5	0x3e16cbea	0.14726225
6	0x3e932379	0.28738
7	0x3d3c1476	0.04591795
8	0x3e17cacc	0.14823455
9	0x3dbd212a	0.09234841
10	0xbe62c433	-0.22145157
11	0x3e72b865	0.23703153
12	0x3e6a8cfc	0.22905344
13	0xbf4ab056	-0.7917532
14	0x3d7b5606	0.061361335
15	0xbf00dbe5	-0.5033553
16	0x3e8baf40	0.27282143
17	0x3e6b9a13	0.23007993
18	0x3e290da5	0.16509111
19	0xbf13fcfa	-0.57807887
20	0x3e865d3a	0.26243
21	0x3e88d5ed	0.26725712
22	0xbeb14aa2	-0.34627253
23	0x3da09b5a	0.07842131
24	0x3dc299f6	0.09502022
25	0xbf22888a	-0.6348959
26	0xbe5ba259	-0.2144865
27	0x3e972e7d	0.29527655
28	0xbf4636fe	-0.7742766
29	0x3e37f5b2	0.17964819
30	0x3c93d95b	0.01804798
31	0x3e2c8fd6	0.16851744
32	0xbd2143c8	-0.03937128
33	0xbed5af5f	-0.4173536
34	0x3def9597	0.11698454
35	0x3dfebc65	0.12438277
36	0xbc11d907	-0.008901841
37	0x3e891d2c	0.2678007
38	0x3e77cf10	0.24200082
39	0xbf41bd8a	-0.7567984
40	0xbeadb3bd	-0.33926192
41	0x3d8cd5a4	0.06876686
42	0x3e98489d	0.297429
43	0x3c11c9b9	0.008898192
44	0x3e02023d	0.12696166
45	0xbeddbc99	-0.4330795
46	0xbeef2966	-0.46711272
47	0xbf599ecd	-0.85007936
48	0xbca47acd	-0.020078087
49	0x3e21b1b4	0.15790445
50	0xbd47cc66	-0.048778914
51	0xbf13d3f3	-0.57745284
52	0x3e3510ee	0.1768224
53	0x3e79e9f2	0.2440565
54	0xbf1f44b2	-0.62214196
55	0xbb876932	-0.0041324133
56	0x3d1c6eb3	0.03819151
57	0x3b0ad345	0.0021183055
58	0x3e1029e1	0.14078476
59	0x3e110944	0.14163691
60	0xbf832dc5	-1.0248343
61	0x3d27c743	0.040961515
62	0x3d623b60	0.055232406
63	0xbf8edbf9	-1.116088
64	0x3dc817bf	0.09770154
65	0xbf76cae9	-0.96403366
66	0x3e2054f7	0.15657412
67	0x3e048838	0.12942588
68	0x3e3133f9	0.17304982
69	0xbf1ba644	-0.60800576
70	0x3d0d01c0	0.034425497
71	0x3e215cff	0.15758131
72	0xbf193dca	-0.5985991
73	0x3d88c69a	0.06678505
74	0xbd0d0112	-0.03442485
75	0xbf81563d	-1.0104443
76	0xbf1b54db	-0.60676354
77	0x3e6b2911	0.22964884
78	0xbf5da5b3	-0.8658096
79	0x3e4834fd	0.19551463
80	0x3ce7fb33	0.028318023
81	0x3ec009b5	0.37507406
82	0x3e1a83fc	0.1508941
83	0xbf04ef61	-0.51927763
84	0x3e14edd0	0.14543843
85	0x3d148da1	0.03626788
86	0x3d92b596	0.07163541
87	0xbde1321d	-0.109958865
88	0x3e44dd92	0.19225147
89	0xbeec70ab	-0.4617971
90	0xbf1df323	-0.6169912
91	0xbd1eeffa	-0.03880308
92	0x3e1db5f6	0.15401444
93	0x3e314727	0.17312299
94	0xbdbcd198	-0.09219664
95	0xbf7e97da	-0.9945046
96	0xbf66bd5c	-0.9013269
97	0xbf8426c5	-1.0324332
98	0x3e5bca6a	0.21463934
99	0x3e0ec5e4	0.13942677
100	0x3e81cd6e	0.25352043
101	0x3ecd0b4b	0.40047678
102	0xbf149d26	-0.5805229
103	0xbe91e62d	-0.28495923
104	0x3e7935b3	0.24336891
105	0xbecccfb0	-0.40002203
106	0x3dbae493	0.09125628
107	0xbf468395	-0.7754453
108	0xbe786d91	-0.24260546
109	0xbe3069f3	-0.17227916
110	0x3ea6e2ac	0.32594812
111	0x3e112b53	0.14176683
112	0xbe9fbd83	-0.31199273
113	0x3e183791	0.14864947
114	0xbe2b6ffe	-0.1674194
115	0x3ebbc867	0.36676332
116	0xbeaa7510	-0.33292437
117	0xbe213d87	-0.15746127
118	0xbec7addc	-0.38999832
119	0x3e396235	0.1810387
120	0x3e177ff3	0.14794903
121	0xbe946d25	-0.2898952
122	0x3dc7dcbd	0.09758899
123	0xbefd6ddf	-0.49497887
124	0xbeaced06	-0.33774585
125	0x3f3f42bb	0.747112
126	0x3d34e77c	0.044166073
127	0xbdade633	-0.08491173
128	0x3e1b238d	0.1515028
129	0xbebc8c58	-0.36825824
130	0xbe9940bd	-0.29932204
131	0xbdca53e6	-0.098792836
132	0xbe8e0d32	-0.27744442
133	0x3ef43509	0.47696713
134	0xbea4b94f	-0.3217263
135	0xbeca8fef	-0.39562938
136	0xbedb6a1f	-0.428544
137	0x3ea0a31a	0.31374437
138	0x3e199ada	0.15000477
139	0x3e15ff6a	0.14648214
140	0x3e942b38	0.28939223
141	0xbf120db1	-0.5705214
142	0xbe3ead49	-0.1862079
143	0xbedd3ccb	-0.43210444
144	0x3d33e480	0.043919086
145	0x3eaea4ce	0.3411011
146	0x3e49508e	0.19659635
147	0x3ea6516f	0.32484004
148	0xbec5514b	-0.38538584
149	0xbf7766fa	-0.96641505
150	0x3e922626	0.2854473
151	0x3f02a6c7	0.5103573
152	0xbf1ed080	-0.62036896
153	0xbe965ee0	-0.2936926
154	0x3e8ecbc1	0.27889827
155	0xbf0a879d	-0.5411318
156	0x3d5ffa1c	0.054681882
157	0xbf36f37a	-0.71465266
158	0xbe293e83	-0.16527753
159	0xbe3a18e9	-0.18173565
160	0x3ef54d7b	0.47910675
161	0x3e4fa215	0.20276673
162	0xbf2199a5	-0.6312507
163	0x3e06f372	0.13178805
164	0xbd82e4dd	-0.063913085
165	0x3e91d745	0.2848455
166	0xbf1679a2	-0.58779347
167	0xbedbe127	-0.42945215
168	0xbf0fd2d4	-0.56181073
169	0x3dd2d5e0	0.102947
170	0xbdb1c0c5	-0.08679346
171	0xbeda8314	-0.4267813
172	0x3eaa5fe0	0.33276272
173	0xbf5cdead	-0.86277276
174	0xbeae1b13	-0.3400503
175	0x3efd9dd1	0.49534467
176	0x3d865350	0.06558859
177	0xbe94d873	-0.29071388
178	0xbd741c21	-0.05959714
179	0xbf046747	-0.5172009
180	0xbf33c6a6	-0.7022499
181	0xbee4156c	-0.44547594
182	0xbca0a944	-0.019611962
183	0x3f060284	0.5234759
184	0xbdda2691	-0.10651887
185	0xbee0aee1	-0.43883422
186	0xbdebf11f	-0.115205996
187	0x3eb0dd67	0.34543917
188	0x3db15ee7	0.08660679
189	0x3d9b15e6	0.07572536
190	0x3e2edcc9	0.1707641
191	0xbe481392	-0.19538715
192	0xbeaaaa3c	-0.33333004
193	0xbf40a59d	-0.75252706
194	0x3c33044b	0.0109263165
195	0x3e5a5d4d	0.21324654
196	0x3e4baac0	0.19889355
197	0x3e7793d9	0.24177493
198	0xbf4adedd	-0.7924631
199	0xbf59d011	-0.8508311
200	0x3e6ed53d	0.23323531
201	0x3e4ce4aa	0.20009103
202	0xbf4e9f8c	-0.807122
203	0xbf45650e	-0.7710732
204	0x3da23190	0.079196095
205	0xbf22d3a7	-0.63604206
206	0x3e4b4c15	0.19853242
207	0xbf6fa0ee	-0.93604934
208	0xbf8e2091	-1.1103688
209	0xbf17f37b	-0.59355897
210	0x3eb0f672	0.34563023
211	0x3e51e404	0.20497137
212	0xbef1956a	-0.47184306
213	0x3e3ac91c	0.1824078
214	0xbf237ac8	-0.63859224
215	0x3e88c597	0.2671325
216	0xbf6563ee	-0.89605606
217	0xbf5658ed	-0.8372944
218	0xbf5686d6	-0.83799493
219	0x3d184ec3	0.037184488
220	0x3e42f374	0.19038182
221	0xbf33a895	-0.7017911
222	0x3c44b7f9	0.012006753
223	0xbf6aaf37	-0.91673607
224	0xbf640a32	-0.89078057
225	0x3f167073	0.58765334
226	0xbda98e26	-0.08279066
227	0xbf38ea5e	-0.72232616
228	0xbd5e118e	-0.05421596
229	0xbf3ee464	-0.74567246
230	0xbf4dae5b	-0.8034417
231	0xbf0c31a4	-0.54763246
232	0xbf59280d	-0.8482674
233	0x3e8aa2a8	0.27077222
234	0xbf3b917f	-0.73268884
235	0xbec4c0b6	-0.38428277
236	0xbf20860f	-0.6270456
237	0x3e4ba105	0.19885643
238	0x3e070cc7	0.13188468
239	0x3c589dab	0.013221185
240	0xbc8ed41d	-0.017435128
241	0xbf5a37f7	-0.85241646
242	0xbf156bbc	-0.58367515
243	0xbf7c24f8	-0.9849391
244	0x3e8eb0de	0.27869314
245	0x3e29edf1	0.16594674
246	0x3c112ff9	0.008861535
247	0x3e637a8c	0.22214717
248	0xbf4f0b1e	-0.8087634
249	0xbf6b0d57	-0.9181723
250	0x3e80d442	0.2516194
251	0x3edd1bcc	0.4318527
252	0xbeb7b72b	-0.35881934
253	0xbee82bd7	-0.45345947
254	0x3e84dcb9	0.25949648
255	0xbee74f39	-0.4517763

network.8.bias f4 [50]
0	0x3d4449ae	0.04792183
1	0x3d93da84	0.07219413
2	0x3d910cff	0.07082557
3	0x3dbb6672	0.09150399
4	0x3d5e2519	0.054234598
5	0x3db90610	0.090343595
6	0x3da0451d	0.07825682
7	0x3d65859d	0.056035627
8	0x3bcf0893	0.006318161
9	0x3da807f1	0.0820464
10	0x3d8faedf	0.07015776
11	0x3d98d6cc	0.07462844
12	0x3d8de1ab	0.069278084
13	0x3d7025c0	0.05862975
14	0x3d78c761	0.060737018
15	0xbe3373aa	-0.17524591
16	0x3da606cb	0.081067644
17	0x3d8d2d2c	0.068933815
18	0x3dbb34aa	0.09140904
19	0x3d258edc	0.040419444
20	0x3d84ea87	0.06490045
21	0x3d88cd82	0.066798225
22	0x3d81a095	0.06329457
23	0x3d23171e	0.03981697
24	0x3d47d575	0.048787553
25	0x3d4680be	0.048462622
26	0x3d48e03f	0.049041983
27	0x3d6cf5f8	0.05785176
28	0x3d8c21d4	0.0684239
29	0x3dc59ce2	0.09649064
30	0x3d8596b1	0.06522883
31	0x3d286b11	0.04111773
32	0x3d5d5f2a	0.054045834
33	0x3d5eb866	0.054375075
34	0x3d36753f	0.04454541
35	0x3d2f3b8f	0.04278141
36	0x3d62376e	0.055228643
37	0x3d8e685c	0.06953499
38	0x3cee5e50	0.029097706
39	0x3d1615d1	0.0366419
40	0x3c99e37c	0.01878523
41	0x3dba266c	0.0908936
42	0x3d86aef4	0.065763384
43	0x3da58687	0.080823
44	0x3d65eb39	0.05613253
45	0x3da41b7a	0.08013053
46	0x3d801d48	0.06255585
47	0x3d07a70b	0.03311829
48	0x3ce210b0	0.027595848
49	0x3dda9626	0.1067317

network.11.weight f4 [2, 50]
0	0x3e7c2ede	0.24627253
1	0x3e8c2077	0.2736852
2	0xbe87dea0	-0.26537037
3	0xbe544c7d	-0.20732303
4	0xbf2dc400	-0.678772
5	0xbe6049cc	-0.21903151
6	0x3e7fa00e	0.249634
7	0x3e96880a	0.29400665
8	0x3e530048	0.20605576
9	0x3e915aaa	0.28389484
10	0x3e1d099e	0.153357
11	0x3df5e082	0.12005712
12	0xbe6d1d94	-0.23155814
13	0x3e9b6cec	0.30356538
14	0x3e80a7fe	0.25128168
15	0xbe0cedb8	-0.13762558
16	0xbeb0de38	-0.3454454
17	0x3ea088c4	0.31354344
18	0x3eaf4f55	0.34240213
19	0x3e418982	0.18900111
20	0xbeb68791	-0.35650304
21	0xbf0efcae	-0.5585431
22	0xbe5e5ebe	-0.21715829
23	0x3ec70bbc	0.3887614
24	0x3e6d031c	0.23145717
25	0xbe2c7df8	-0.16844928
26	0x3e186386	0.14881715
27	0xbe978fff	-0.29602048
28	0xbf2fd92a	-0.6869074
29	0x3eae49c7	0.34040663
30	0x3e147381	0.14497186
31	0x3eb4e103	0.3532792
32	0xbf6c5852	-0.92322266
33	0x3e9404de	0.28909963
34	0x3e8ca88b	0.27472338
35	0x3e6c076c	0.23049706
36	0x3e66aae5	0.22526129
37	0xbec4535a	-0.38344842
38	0x3e4661b1	0.19373204
39	0x3e0668b9	0.13125886
40	0x3ed0381e	0.40667814
41	0x3e761111	0.24029948
42	0x3ea6314b	0.32459483
43	0xbee8fb63	-0.45504293
44	0x3e9d02b9	0.3066614
45	0x3e49ef69	0.19720234
46	0x3e4d6d6b	0.20061271
47	0xbea1d5f2	-0.3160854
48	0x3e175a48	0.14780533
49	0xbeb8346e	-0.359775
50	0xbe3631e8	-0.17792475
51	0xbeac7af9	-0.3368757
52	0x3e5774e8	0.2104069
53	0x3ecdce94	0.4019667
54	0x3f414969	0.7550264
55	0x3eccb9c3	0.39985475
56	0xbe8f97e8	-0.28045583
57	0xbe3778b6	-0.17917141
58	0xbe877bcb	-0.26461634
59	0xbe9d11d7	-0.30677673
60	0xbe8bbdd2	-0.2729326
61	0xbe8a3924	-0.2699672
62	0x3e873ce8	0.26413655
63	0xbd868c8f	-0.06569778
64	0xbe72ca06	-0.23709878
65	0x3e44010e	0.19141027
66	0x3ef5244a	0.4787925
67	0xbe6fc27b	-0.23414032
68	0xbe2d8cbb	-0.16948216
69	0xbe936d25	-0.28794208
70	0x3ecdb8a9	0.40179947
71	0x3f1fee81	0.62473303
72	0x3ebb0fd1	0.36535504
73	0xbebc3856	-0.3676173
74	0xbe13ec23	-0.14445548
75	0x3eaefd30	0.34177542
76	0xbec084e4	-0.37601388
77	0x3e815387	0.2525904
78	0x3f46b04a	0.77612746
79	0xbe0f8d56	-0.14018759
80	0xbe8fd1d5	-0.28089777
81	0xbea98003	-0.33105478
82	0x3f7147f7	0.94250435
83	0xbda8f572	-0.0824994
84	0xbe13f299	-0.14448012
85	0xbe9f28d7	-0.31085846
86	0xbe84ce96	-0.25938863
87	0x3ec28009	0.37988308
88	0xbe75b720	-0.23995638
89	0xbe8ecc9e	-0.27890486
90	0xbefb6110	-0.4909749
91	0xbea23f9f	-0.31689164
92	0xbdda2966	-0.106524274
93	0x3ee5b778	0.44866538
94	0xbd6da2a1	-0.058016423
95	0xbe84e029	-0.2595227
96	0xbe8325a5	-0.25614658
97	0x3e0cdc9c	0.13756031
98	0xbe9d86fe	-0.30767053
99	0x3e9c1450	0.30484247

network.11.bias f4 [2]
0	0xbd5cc1aa	-0.05389563
1	0x3e0dd42b	0.13850467
