model/mlp.pt (torch, 25847 bytes, 12 tensors)

network.0.weight f4 [25, 108]
0	0xbd44787b	-0.04796646
1	0xbdefaa14	-0.11702362
2	0x3d3a07d2	0.045417614
3	0xbc720b18	-0.014773153
4	0x3c56cdb8	0.013110571
5	0x3df396f7	0.11894029
6	0xbd40833a	-0.047000147
7	0xbc133de0	-0.00898692
8	0x3dacc4b3	0.08435955
9	0x3daaa702	0.083326355
10	0xbde80fad	-0.11331115
11	0x3d44cbcc	0.04804592
12	0x3d2e39ee	0.042535715
13	0xbc0a320a	-0.008434782
14	0x3bf7bfd2	0.0075607086
15	0xbc1f6148	-0.0097277835
16	0xbe18c707	-0.14919673
17	0xbdab2643	-0.08356907
18	0xbb738341	-0.003715709
19	0xbd9f5493	-0.07779803
20	0xbdac995d	-0.08427689
21	0xbddc14d4	-0.1074616
22	0xbbfb3ad4	-0.007666925
23	0xbda03528	-0.07822639
24	0x3c11e204	0.008903984
25	0xbd64eb82	-0.05588866
26	0xbddd62b9	-0.108098455
27	0xbc839ad6	-0.016065042
28	0x3ccd0e8e	0.025031354
29	0x3d2444e6	0.04010477
30	0xbc620a77	-0.01379644
31	0x3d7e8508	0.062138587
32	0x3d142152	0.03616459
33	0x3c4523cd	0.012032461
34	0xbd1eb463	-0.03874625
35	0xbce31878	-0.027721629
36	0xb920bc28	-0.00015328883
37	0xbcf3ccdf	-0.029760776
38	0x3ca5f990	0.020260602
39	0xbc889f52	-0.016677532
40	0x3de8ada3	0.113612436
41	0xbcf50de0	-0.029913843
42	0xbc5f7c47	-0.01364047
43	0xbd7633af	-0.060107883
44	0x3dab8359	0.08374662
45	0xbda95a04	-0.08269122
46	0xbc2c484c	-0.010515284
47	0x3e4ce67f	0.20009802
48	0x3d5fde15	0.054655153
49	0x3b5db14e	0.0033827606
50	0xbe02708d	-0.12738247
51	0x3d21049f	0.039311048
52	0xbc8dd837	-0.017315013
53	0x3dca707e	0.098847374
54	0x3c804c8f	0.015661506
55	0xbc03d16a	-0.008045534
56	0x3c477cb4	0.012175728
57	0xbc608f8a	-0.013706097
58	0xbd9b8720	-0.075941324
59	0xbdfe6322	-0.12421252
60	0xbd98ab23	-0.07454517
61	0xbe1c417c	-0.15259355
62	0x3c619df0	0.013770565
63	0xbd14764e	-0.036245637
64	0x3dd17e81	0.10229207
65	0xbabf15e7	-0.0014578671
66	0x3d224076	0.039612256
67	0x3db6dac0	0.08928442
68	0x3cd633bf	0.026147721
69	0xbd53b699	-0.05168781
70	0x3d60e64c	0.05490713
71	0x3d66bbea	0.056331553
72	0x3da2e5c5	0.07953981
73	0xbcead3f6	-0.028665524
74	0x3d1b9ee0	0.037993312
75	0x3d98e99f	0.07466435
76	0x3ccf9a95	0.025342265
77	0xbb920958	-0.0044566803
78	0x3df32f8f	0.118743055
79	0xbd6aed69	-0.05735532
80	0xbd757552	-0.05992634
81	0x3dbca635	0.09211389
82	0x3c57fe4c	0.013183188
83	0xbdd29d1e	-0.10283874
84	0x3ba6c507	0.0050894055
85	0xbde21a43	-0.11040165
86	0xbcf7a399	-0.030229377
87	0xba8aadec	-0.0010580397
88	0xbe096127	-0.13415967
89	0x3d7cab6f	0.06168693
90	0xbcd11228	-0.025521353
91	0xbdc22b5c	-0.094809264
92	0xbdbf13a8	-0.09329921
93	0x3dd3686e	0.10322653
94	0x3da471fc	0.08029553
95	0x3d2f38e5	0.04277887
96	0xbd8c7e53	-0.06860032
97	0x3d27bb29	0.040949974
98	0xbe00f8f7	-0.12594973
99	0x3defda3d	0.117115475
100	0x3d1e14eb	0.038594168
101	0x3e05d57d	0.1306972
102	0xbd1b143b	-0.03786109
103	0xbd5393f2	-0.051654764
104	0xbc42ee0a	-0.011897573
105	0xbcb933cd	-0.022607708
106	0x3dc9125e	0.098179564
107	0xbd4de56e	-0.05026763
108	0x3d86bc98	0.0657894
109	0x3d4616a6	0.048361443
110	0x3bdaee9f	0.006681278
111	0xbe0af845	-0.1357127
112	0xbbf80e75	-0.007570083
113	0x3c95bc25	0.01827819
114	0xbc757a1a	-0.014982725
115	0xbdf488c3	-0.11940148
116	0x3b751547	0.0037396715
117	0x3dfb2c4b	0.122643076
118	0xbd2c05bd	-0.04199766
119	0x3d0088ea	0.03138057
120	0x3d8274b6	0.06369917
121	0xbd229286	-0.039690517
122	0x3d9c91ee	0.076450214
123	0xba94bc0e	-0.0011347549
124	0x3e0aa3fd	0.13539119
125	0x3de18aa1	0.110127695
126	0x3dc361ba	0.09540124
127	0x3e05dccb	0.13072507
128	0xbd195941	-0.037438635
129	0x3cd2148f	0.025644569
130	0xbca21980	-0.01978755
131	0x3d640d0d	0.05567651
132	0x3d58c8a6	0.05292573
133	0x3ca81a25	0.02052028
134	0x3de9de99	0.1141941
135	0x3cd6a92b	0.026203712
136	0x3dd501cb	0.104007326
137	0xbd0ef7a6	-0.034904145
138	0x3d5ea0c6	0.054352544
139	0xbb209396	-0.002450203
140	0xbde4a90a	-0.11165054
141	0x3c939688	0.018016115
142	0xbcdf4452	-0.027254257
143	0x3d15223a	0.036409594
144	0xbae963bd	-0.0017806214
145	0x3d2a1ef1	0.041533414
146	0xbb8ac8f0	-0.0042353794
147	0x3de2e530	0.1107887
148	0x3df8f73e	0.12156533
149	0x3cf1beb1	0.029509874
150	0x3a2599b3	0.00063171535
151	0x3df25a9e	0.1183369
152	0x3e00fe57	0.12597023
153	0x3c84c611	0.016207727
154	0x3d8b7cb8	0.068108976
155	0x3e36185f	0.17782734
156	0x3c7a47cb	0.015275906
157	0xbdaff7b5	-0.08592168
158	0x3d922b3b	0.07137152
159	0xbcc6a10d	-0.024246717
160	0x3d32a794	0.043616846
161	0xbc797525	-0.015225683
162	0x3d8e3013	0.06942763
163	0xbd51ba00	-0.051202774
164	0x3d9713e2	0.07376839
165	0x3d233d13	0.039853167
166	0xbde64ed4	-0.11245504
167	0x3d8df319	0.06931133
168	0x3d92ee11	0.07174314
169	0xbc3a71b5	-0.011379649
170	0x3d28047e	0.04101991
171	0xbcc84c02	-0.024450306
172	0x3db06099	0.086121745
173	0xbd957214	-0.07297149
174	0xbaaaddd8	-0.0013036085
175	0xbe12a85d	-0.14322038
176	0xbd1a6b54	-0.037700012
177	0x3e0e765f	0.13912342
178	0x3e506528	0.20351088
179	0xbcb16fc1	-0.021659734
180	0x3e2d204f	0.16906856
181	0x3e058a36	0.13041005
182	0x3d2d61d8	0.04232964
183	0x3d9a39ed	0.0753058
184	0xbccc1294	-0.024911202
185	0xbaedf882	-0.0018155726
186	0x3cdeb3a0	0.027185261
187	0x3d8cbce2	0.06871964
188	0x3d9b24a8	0.07575351
189	0x3ddb0945	0.106951274
190	0x3d187ff3	0.037231397
191	0x3d439089	0.04774526
192	0xbc0ab767	-0.008466578
193	0x3d76ce91	0.06025559
194	0x3cfc5e37	0.030806644
195	0xbd4d172d	-0.05007093
196	0xbceff644	-0.029292233
197	0xbbb6f7ad	-0.0055837245
198	0xbd7f2512	-0.062291212
199	0x3d1114ca	0.035420217
200	0x3e0c9918	0.13730276
201	0xbd2e545b	-0.042560916
202	0x3df7652c	0.12079844
203	0x3d77adc3	0.060468446
204	0xbd63df79	-0.055633042
205	0x3d764104	0.060120597
206	0xbdabf5d8	-0.083965
207	0x3c415442	0.011799874
208	0x3d9ecf47	0.07754379
209	0x3ded9a15	0.116016544
210	0x3ccfd813	0.025371587
211	0x3ce6024f	0.028077273
212	0x3d5d0346	0.0539582
213	0x3dbdcada	0.092672065
214	0x3dce433d	0.100714184
215	0xbd7874c1	-0.06065822
216	0x3a6d58ed	0.00090540835
217	0x3d92d431	0.071693785
218	0x3d7fcdfc	0.0624523
219	0x3e80a19b	0.25123295
220	0x3d91662b	0.07099565
221	0xbc524d0d	-0.012835753
222	0xbb902467	-0.0043988707
223	0x3bae1d19	0.0053135273
224	0x3cf70914	0.030155696
225	0xbca06694	-0.019580163
226	0x3d28d8c1	0.041222338
227	0x3dc5d131	0.09659041
228	0x394b9a42	0.00019417054
229	0xbd6d89ab	-0.05799262
230	0xbe33836c	-0.17530602
231	0xbd2b1cdb	-0.041775566
232	0xbdc5a19e	-0.09649967
233	0xbd9439a7	-0.07237559
234	0x3a8c73cb	0.0010715661
235	0xbd86110d	-0.06546221
236	0x3d656996	0.056008898
237	0xbd05963d	-0.03261398
238	0x3d3bda47	0.045862462
239	0xbd54720f	-0.051866587
240	0x3dddee06	0.10836415
241	0x3cdf889a	0.027286816
242	0xbc4f32de	-0.012646405
243	0x3dc070f4	0.09396544
244	0xbdde86ce	-0.10865556
245	0x3de01f9c	0.10943529
246	0xbd042b15	-0.03226765
247	0xbd9faa89	-0.07796199
248	0x3d96f176	0.07370274
249	0xb93fc8bf	-0.00018289963
250	0xbd2bb7ee	-0.041923456
251	0xbdb81488	-0.08988291
252	0x3c86b189	0.016442077
253	0x3c48d645	0.012258117
254	0xbcfa8f72	-0.030585978
255	0x3dd970a8	0.106171906

network.0.bias f4 [25]
0	0x3d9a1aeb	0.075246654
1	0x3cc42f29	0.023948269
2	0xbb9f174f	-0.0048550735
3	0x3d0f3024	0.03495802
4	0xbcdf0b28	-0.027227
5	0x3da4a30e	0.08038913
6	0x3d53a542	0.051671274
7	0xbd25f31b	-0.040515047
8	0x3c30fd7d	0.010802624
9	0x3cf77283	0.03020597
10	0xbca6d57d	-0.020365471
11	0x3d5acaa8	0.053415924
12	0x3d15fb31	0.036616508
13	0x3ca8091d	0.020512158
14	0x3d44ac34	0.04801579
15	0xbbd29489	-0.006426398
16	0x3d4f0749	0.050544057
17	0x3d85d5ef	0.06534945
18	0x3c82e7a7	0.015979601
19	0xbced447a	-0.028963316
20	0xbd689d96	-0.05679091
21	0xbd8e8fa2	-0.069609895
22	0x3d7737e8	0.06035605
23	0x3c0f6150	0.008751228
24	0x3d0ab229	0.033861313

network.2.weight f4 [25, 25]
0	0x3db641db	0.0889928
1	0x3e3239e5	0.17404898
2	0x3d1c9259	0.038225506
3	0xbc971c50	-0.018446118
4	0x3cabf2f2	0.020989869
5	0xbe081255	-0.13288243
6	0x3e5dbde7	0.21654473
7	0x3ea4735d	0.32119265
8	0xbd199531	-0.037495796
9	0x3d81b708	0.063337386
10	0xbe25dde5	-0.16197927
11	0x3e284c8d	0.16435452
12	0xbde2f7fd	-0.11082456
13	0xbe0bd2e4	-0.13654667
14	0x3d868f0f	0.06570255
15	0xbe76cdf2	-0.24102
16	0xbcb6e296	-0.022324841
17	0xbc71f5b2	-0.014768051
18	0x3d8525ff	0.06501388
19	0x3d4ace2a	0.04951302
20	0x3d645676	0.055746518
21	0x3e93d516	0.2887351
22	0xbd48a63d	-0.048986662
23	0x3dd7074c	0.10499439
24	0xbe1fb64a	-0.15596882
25	0x3e382550	0.17982984
26	0x3e14318d	0.14472027
27	0xbd26dcd1	-0.04073793
28	0xbd228a80	-0.039682865
29	0x3c02fbe4	0.007994626
30	0xbcb629b6	-0.022236686
31	0x3e81b4a6	0.25333136
32	0xbda75bd2	-0.0817181
33	0x3d04e8c0	0.03244853
34	0xbd303bb4	-0.043025687
35	0xbde99ff1	-0.114074595
36	0x3df3359d	0.1187546
37	0x3e33a50c	0.17543429
38	0x3da996f0	0.08280742
39	0x3e0d5b2b	0.13804309
40	0x3d5b4e19	0.053541277
41	0xbe453e87	-0.19262134
42	0xbdec3330	-0.11533201
43	0xbd7343f7	-0.05939099
44	0x3e78d2f0	0.24299216
45	0x3dc3859a	0.09546967
46	0xbbef928d	-0.0073111714
47	0xbd0231aa	-0.031785645
48	0x3ca3dd0d	0.020002866
49	0x3d7dfc35	0.0620081
50	0xbd5bbcd2	-0.05364687
51	0xbcecddf9	-0.028914439
52	0x3e834462	0.2563811
53	0x3def8fd8	0.11697358
54	0xbe6e4a77	-0.23270594
55	0xbdfe54b2	-0.12418498
56	0xbdadd6e2	-0.08488251
57	0xbdc2e737	-0.09516757
58	0xbe578c95	-0.21049722
59	0x3cd727d8	0.026264116
60	0x3e45d16b	0.19318168
61	0xbe60d660	-0.21956778
62	0x3e2700c1	0.16308881
63	0x3d17ec19	0.037090395
64	0xbcb356ca	-0.02189197
65	0x3df02c1d	0.11727164
66	0xbccd427e	-0.02505612
67	0x3d9981e3	0.07495477
68	0x3d17f124	0.037095204
69	0xbe1ecdea	-0.15508237
70	0x3d2f81e3	0.04284848
71	0xbe6c17e4	-0.23055989
72	0x3e6424c3	0.22279648
73	0x3c953fe9	0.018218951
74	0xbe064ac8	-0.13114464
75	0xbe29a483	-0.16566662
76	0xbe2473ca	-0.16059795
77	0xbb27cfd1	-0.0025606046
78	0xbcfe52ae	-0.031045284
79	0x3be1ecd9	0.0068946895
80	0xbe5e7512	-0.21724346
81	0xbd82a293	-0.06378665
82	0xbe724655	-0.23659642
83	0xbe28b103	-0.16473775
84	0x3d848d90	0.064723134
85	0x3c9c0116	0.019043487
86	0xbe3bda2d	-0.18344946
87	0x3d538d11	0.051648203
88	0xbdeba2db	-0.115056716
89	0xbe56f342	-0.20991233
90	0x3e0b2aa5	0.13590486
91	0x3e1e0ba2	0.15434125
92	0x3e46866c	0.19387215
93	0xbb8d23a7	-0.0043072286
94	0xbe4e0488	-0.20118916
95	0x3d6cecf7	0.057843175
96	0xbd45f123	-0.04832567
97	0x3e632819	0.22183265
98	0x3e0cca2d	0.13748999
99	0x3d9fe545	0.078074016
100	0x3e7cf645	0.2470332
101	0x3e08646c	0.13319558
102	0xbddeb0a4	-0.10873535
103	0x3e6d002a	0.23144594
104	0xbb3ceb27	-0.0028826685
105	0x3da17207	0.07883077
106	0x3e39f5b4	0.18160135
107	0x3d03a92a	0.03214375
108	0x3e1264c0	0.14296246
109	0x3ca0b60a	0.019618053
110	0x3ccd5a2c	0.025067411
111	0x3dfc85de	0.12330221
112	0xbd4ae0f4	-0.04953094
113	0x3d3654d2	0.044514485
114	0x3e0856b2	0.13314322
115	0x3d7bfc34	0.061519817
116	0x3e02c274	0.1276949
117	0x3bc196e7	0.0059078815
118	0xbdade8b7	-0.084916525
119	0x3ea57a7d	0.32320014
120	0xbda58c99	-0.080834575
121	0x3e33fc86	0.17576799
122	0xbcfaad2a	-0.03060015
123	0xbdbb5114	-0.09146324
124	0xbd1dd2ef	-0.03853124
125	0x3e0c77e8	0.13717616
126	0x3e390100	0.18066788
127	0xbe274314	-0.16334182
128	0xbb81b22d	-0.003958008
129	0xbbf28a34	-0.007401729
130	0x3e8cdbe9	0.27511528
131	0x3de1b8b8	0.110215604
132	0x3e41a802	0.18911746
133	0x3e891239	0.26771715
134	0x3e2f597b	0.17123978
135	0xbce1aab4	-0.027547218
136	0x3e7067a3	0.23477034
137	0x3d2a5cb9	0.041592333
138	0x3e5b9718	0.21444356
139	0x3daa5875	0.08317653
140	0xbe1116ec	-0.141689
141	0x3e2744c9	0.16334833
142	0xbde879b5	-0.11351339
143	0x3e60d1b2	0.21954992
144	0x3d569549	0.052388463
145	0x3d43cf4a	0.047805108
146	0x3d852a92	0.0650226
147	0xba89a4a3	-0.0010501336
148	0x3e322f37	0.17400824
149	0x3e49b495	0.19697793
150	0x3d97b096	0.07406728
151	0x3d5451c9	0.05183581
152	0xbce9fdec	-0.028563462
153	0x3db625f6	0.08893959
154	0x3ea54c6a	0.32284862
155	0x3e39f2d4	0.18159038
156	0x3ddbadbb	0.10726496
157	0xbcb15ee7	-0.021651698
158	0x3e6908e1	0.22757293
159	0x3d7d8cc1	0.06190181
160	0xbd38dc99	-0.045132253
161	0xbd861c19	-0.06548328
162	0xbde67513	-0.11252799
163	0x3d928d74	0.07155886
164	0x3e7801b5	0.24219401
165	0xbe0afdbe	-0.13573357
166	0xbb83c64a	-0.0040214406
167	0xbe68bdf1	-0.22728707
168	0xbde9ddac	-0.11419234
169	0x3de60587	0.11231523
170	0xbd09187c	-0.033470616
171	0x3e77d148	0.24200928
172	0xbd2f0650	-0.04273063
173	0x3d9f0ac2	0.07765724
174	0xbe20ae79	-0.15691556
175	0x3dda07d0	0.10646021
176	0x3da2aa2e	0.079426154
177	0x3dbab1e1	0.09115959
178	0xbce4c73f	-0.02792704
179	0x3eab4170	0.33448362
180	0x3d2338d9	0.039849136
181	0x3daf0eae	0.08547722
182	0x3e7128be	0.23550698
183	0xbce7ccc8	-0.02829589
184	0xbdc301e8	-0.09521848
185	0xbe7368fe	-0.2377052
186	0x3dcae10a	0.09906204
187	0x3e58e6ce	0.21181795
188	0x3df3e449	0.11908776
189	0x3dd6e905	0.10493664
190	0x3d29d28d	0.041460562
191	0x3d2611b8	0.04054424
192	0xbe1e782a	-0.15475526
193	0x3cd9f0a2	0.026604
194	0x3dec50ce	0.1153885
195	0xbe225edc	-0.15856498
196	0x3e935984	0.28779233
197	0xbdafae8c	-0.08578214
198	0xbdaeba6d	-0.08531652
199	0xbd87c800	-0.06629944
200	0x3d7786d8	0.06043133
201	0xbd0910c2	-0.033463247
202	0x3d85f94a	0.06541689
203	0xbdf6bafd	-0.12047384
204	0x3deb2291	0.114812024
205	0x3d0aab32	0.03385467
206	0x3e8b49cf	0.2720475
207	0x3dd67b23	0.10472705
208	0x3e80437e	0.25051492
209	0xbd816f66	-0.06320076
210	0xbe02a0f5	-0.12756713
211	0x3bfbdeee	0.0076864874
212	0x3bed7b71	0.0072473814
213	0x3dcde10f	0.10052692
214	0x3e2a5965	0.16635664
215	0xbd2d5b4d	-0.0423234
216	0xbde34f7d	-0.110991456
217	0xbbce4018	-0.0062942617
218	0x3de5c5e0	0.11219382
219	0x3e82a4f6	0.2551648
220	0xbb1d74d5	-0.0024025936
221	0x3e6eddc9	0.23326792
222	0x3d22d724	0.039755955
223	0x3e26cb8f	0.16288589
224	0xbe84c829	-0.2593396
225	0xbe059d4a	-0.13048282
226	0xbcdcf0dc	-0.02697032
227	0x3bba5c02	0.0056872377
228	0xbe077381	-0.13227655
229	0xbe6a8d51	-0.2290547
230	0x3d95c32e	0.07312618
231	0xbe080a4a	-0.13285175
232	0xbe08b37d	-0.1334972
233	0xbd56b929	-0.052422676
234	0xbe2f45a2	-0.17116407
235	0x3e5ea0d5	0.2174104
236	0xbd099b74	-0.033595517
237	0x3d0a2a35	0.033731658
238	0xbdce7639	-0.10081143
239	0xbe383cff	-0.17992018
240	0xbe155a2e	-0.14585182
241	0xbd3cb0d0	-0.04606706
242	0x3e4a7503	0.19771199
243	0xbd6dce52	-0.05805809
244	0xbbdcb3e8	-0.0067353137
245	0x3e418392	0.18897846
246	0x3d947e21	0.0725062
247	0x3d0149c8	0.031564504
248	0x3d47f0f2	0.048813768
249	0x3df7b10e	0.120943174
250	0x3c50a95e	0.012735693
251	0xbe19ee91	-0.15032412
252	0xbcce287f	-0.025165794
253	0x3e0336a6	0.12813815
254	0x3e250197	0.16113888
255	0x3e6f494c	0.23367804

network.2.bias f4 [25]
0	0x3db84883	0.089982055
1	0x3d53ce9c	0.05171071
2	0xbe14ff5b	-0.14550535
3	0x3d5a8e26	0.05335822
4	0xbcef59b2	-0.029217575
5	0xbdc32da6	-0.09530191
6	0xbd70b526	-0.058766507
7	0x3d321a91	0.043482367
8	0xbd98ad3f	-0.07454919
9	0x3e2dc6ae	0.16970322
10	0x3d980958	0.07423657
11	0x3dd34c13	0.103172444
12	0x3e1273d4	0.14301997
13	0x3dcf5158	0.10122937
14	0x3b1f389c	0.0024295216
15	0x3da91e2d	0.08257709
16	0x3e19e62b	0.15029208
17	0xbe253c19	-0.16136207
18	0xbe13291e	-0.14371154
19	0x3e04fae3	0.1298633
20	0x3e290eac	0.16509503
21	0x3c71034e	0.014710261
22	0x3d42613c	0.04745601
23	0xbd196b27	-0.037455704
24	0x39d42f08	0.00040470832

network.5.weight f4 [25, 25]
0	0x3e97614f	0.29566428
1	0x3cb57dd8	0.022154734
2	0xbe1e1d23	-0.15440802
3	0xbd9d92dd	-0.076940276
4	0xbdbeca24	-0.09315899
5	0x3e04cb68	0.12968218
6	0x3e8e184f	0.2775292
7	0x3d1a6be6	0.037700556
8	0x3cae00f7	0.021240694
9	0xbe1fab8d	-0.15592785
10	0xbd0d794b	-0.034539502
11	0x3a0c05dc	0.0005341449
12	0xbdffe836	-0.124954626
13	0x3d7936a4	0.060843125
14	0x3e803b34	0.25045168
15	0x3e73a4fe	0.23793408
16	0xbc813008	-0.015769973
17	0x3d81543a	0.06314893
18	0x3d1f0f27	0.03883281
19	0x3e6362cd	0.22205658
20	0x3d677a32	0.05651302
21	0x3e0d7758	0.13815057
22	0x3e82a719	0.2551811
23	0x3d3d5653	0.046224903
24	0xbe23ae90	-0.15984559
25	0x3e6412df	0.22272824
26	0x3d80cd2a	0.06289132
27	0xbd4a4102	-0.049378403
28	0x3bb3e45d	0.0054898695
29	0x3e799e35	0.24376757
30	0x3e7785a0	0.24172068
31	0x3e233da2	0.1594148
32	0x3e1b4f61	0.15167
33	0x3ea19ca9	0.31564835
34	0xbdb07eda	-0.08617945
35	0xbb9c1bfa	-0.0047640773
36	0x3ddb8e85	0.10720543
37	0x3e4732be	0.1945295
38	0x3e6a72ad	0.22895308
39	0x3d2c527d	0.042070854
40	0x3dfc9e73	0.12334909
41	0xbcda8b3c	-0.02667772
42	0x3db59453	0.08866181
43	0xbd85fb69	-0.06542093
44	0xbd5a9504	-0.05336477
45	0x3e37d60b	0.17952745
46	0x3c95e2f8	0.018296704
47	0x3e897264	0.26845086
48	0xbb1689e2	-0.0022970368
49	0xbc9d4d46	-0.019201886
50	0xbe57286b	-0.21011512
51	0x3db0a3bd	0.086249806
52	0x3e85fbe6	0.26168746
53	0x3dfda987	0.123858504
54	0xbd88ff2d	-0.06689296
55	0xbd988eda	-0.07449122
56	0xbe633cd5	-0.22191174
57	0xbe8e73dd	-0.27822772
58	0x3d95f822	0.07322718
59	0x3e1fb4eb	0.15596358
60	0x3da13710	0.078718305
61	0xbe41c5b9	-0.18923081
62	0xbbd08008	-0.0063629188
63	0xbd346efb	-0.04405115
64	0x3d8b6913	0.06807151
65	0xbe4a220a	-0.19739547
66	0x3e59176a	0.21200338
67	0x3ced7676	0.02898715
68	0x3e507588	0.20357335
69	0xbcb1141c	-0.021616034
70	0x3e3a33cd	0.18183823
71	0xbe518735	-0.20461734
72	0xbe26dd8f	-0.16295455
73	0xbdebe45f	-0.11518168
74	0x3e780e74	0.24224263
75	0x3e2af7fd	0.16696163
76	0x3dfba4d7	0.122873
77	0xbbe880be	-0.0070954254
78	0x3cda6839	0.026661025
79	0x3d876d01	0.06612588
80	0xbc7c5664	-0.0154014565
81	0x3e474cc1	0.19462873
82	0x3e57616e	0.2103326
83	0x3de94f4f	0.1139208
84	0x3dfe3c64	0.12413862
85	0x3dc47e69	0.09594423
86	0xbc3aff50	-0.01141341
87	0x3d0a9a3b	0.033838492
88	0x3d8bdf0f	0.068296544
89	0x3ea5448c	0.3227886
90	0x3d14ab33	0.03629608
91	0xbd26ccc9	-0.040722642
92	0x3dd8b1c8	0.10580784
93	0xbe12e2ec	-0.14344376
94	0xbd696ba8	-0.056987435
95	0xbde7f611	-0.1132623
96	0x3e00e178	0.1258601
97	0x3e3a391c	0.18185848
98	0x3d51b0c9	0.051193986
99	0xbe2f62ff	-0.17127608
100	0xbe181b3e	-0.14854142
101	0x3dc7bc13	0.09752669
102	0x3e9a945b	0.3019131
103	0x3e09dba9	0.134627
104	0xbe9dc052	-0.3081079
105	0xbd60cff7	-0.05488583
106	0x3d190ecd	0.03736763
107	0x3d198912	0.037484236
108	0xbd841dcc	-0.06450996
109	0xbd43e784	-0.047828212
110	0xbd417316	-0.047228895
111	0xbe10c05a	-0.14135876
112	0xbda1e5fd	-0.07905195
113	0xbe86905f	-0.2628202
114	0xbe9527d7	-0.29131958
115	0xbe3f5058	-0.18682992
116	0xbd18d74e	-0.037314706
117	0x3e92c67a	0.2866705
118	0x3e7fdd69	0.24986805
119	0xb921b572	-0.0001542175
120	0xbdc8d304	-0.09805873
121	0xbe5c676d	-0.21523829
122	0xbe209ace	-0.15684053
123	0xbe66f9bf	-0.22556208
124	0x3e8e4ffb	0.27795395
125	0xbcf7670b	-0.030200502
126	0x3d94e402	0.072700515
127	0xbdb6b31f	-0.089208834
128	0xbe239df3	-0.15978222
129	0xbe0af0f6	-0.13568482
130	0x3dc19248	0.09451729
131	0x3c8c7c80	0.01714921
132	0xbd703640	-0.058645487
133	0x3e503dbd	0.20336051
134	0xbe45e010	-0.19323754
135	0x3c991d66	0.018690776
136	0x3e4831db	0.19550268
137	0x3e0aadc0	0.13542843
138	0xbbdc6937	-0.00672641
139	0x3e0b11df	0.13581036
140	0x3d9d2749	0.07673509
141	0xbd810ce1	-0.063012846
142	0x3dff6861	0.124710806
143	0x3c17cfc2	0.009265842
144	0x3e79cac7	0.2439376
145	0xbe0bc36a	-0.13648763
146	0x3d8468f0	0.06465328
147	0x3e61f0fa	0.22064582
148	0x3e6877e6	0.22701988
149	0xbe7555c7	-0.23958503
150	0xbd3bdc25	-0.045864243
151	0x3d8bd519	0.068277545
152	0xbc7445c7	-0.014909214
153	0xbe073df6	-0.1320723
154	0x3e6d34be	0.23164651
155	0xbb990f05	-0.00467098
156	0x3e5893c3	0.21150117
157	0x3e486f6b	0.19573753
158	0x3e8a5803	0.27020273
159	0xbe0e411a	-0.13892022
160	0x3dbfe77f	0.09370326
161	0x3e5e7b28	0.21726668
162	0x3e49ab47	0.19694243
163	0xbce7ed4f	-0.0283114
164	0x3e13af7c	0.1442241
165	0x3bb003ec	0.0053715613
166	0x3d987d48	0.074457705
167	0xbdefc5f8	-0.117076814
168	0x3d9a270a	0.07526977
169	0x3e52c20c	0.20581836
170	0xbcc9b4a8	-0.024622276
171	0x3db11b51	0.08647788
172	0xbd1e7e59	-0.038694713
173	0x3d8c12c5	0.068395175
174	0x3d5b34ed	0.05351727
175	0xbdc6b8b0	-0.09703195
176	0xbc151cb4	-0.009101082
177	0x3e964f96	0.29357594
178	0x3c55c454	0.013047297
179	0xbea52f36	-0.32262582
180	0xbe840d7f	-0.25791547
181	0x3d6dfd3d	0.058102835
182	0xbe961878	-0.29315543
183	0x3d67ecbb	0.05662225
184	0x3c2b887d	0.010469553
185	0xbcaf733f	-0.021417258
186	0xbe7a27bf	-0.24429224
187	0xbe489d52	-0.19591263
188	0xbe93df2f	-0.28881213
189	0xbe863356	-0.2621104
190	0xbe75c226	-0.23999843
191	0x3e003b82	0.125227
192	0x3ea85a3d	0.32881346
193	0x3e16540c	0.14680499
194	0xbe675d1c	-0.22594112
195	0x3e1309ad	0.1435916
196	0xbe85c0f5	-0.26123777
197	0x3b2e9a02	0.0026642089
198	0x3d123866	0.035698317
199	0x3e36f013	0.17865019
200	0xbd9f66d8	-0.07783288
201	0x3dd6b581	0.10483838
202	0xbe7823fe	-0.2423248
203	0xbe345d6c	-0.17613763
204	0xbcc4ebd9	-0.024038242
205	0x3e74a60b	0.23891465
206	0xbc0ae859	-0.008478248
207	0x3d79fd16	0.061032377
208	0xbd4ab6f7	-0.049490895
209	0xbd394e87	-0.045240905
210	0xbdb3a965	-0.08772544
211	0x3de9a318	0.11408061
212	0xbdca585d	-0.09880135
213	0xbbe04ec5	-0.0068453276
214	0x3e9e097c	0.3086661
215	0x3e4b64f1	0.19862725
216	0xbd36d7a8	-0.04463926
217	0xbd37dec3	-0.044890177
218	0xbe3b5e51	-0.18297698
219	0x3a87fb62	0.00103746
220	0x3d4caf92	0.049972124
221	0x3e41fceb	0.18944137
222	0x3e35f164	0.17767864
223	0x3d56bbeb	0.052425306
224	0xbe03d9ad	-0.12876005
225	0x3dc5f5b0	0.09666002
226	0xbc4b0331	-0.012390898
227	0xbe89e905	-0.26935592
228	0xbe59d69c	-0.21273273
229	0x3e363115	0.17792161
230	0x3dd557c1	0.10417128
231	0x3e2e098b	0.16995828
232	0x3e56d4b9	0.20979585
233	0x3e30838c	0.17237681
234	0xbd4a03d4	-0.049320057
235	0x3e60fec1	0.21972181
236	0x3e1228c7	0.14273368
237	0x3cab96ae	0.020945873
238	0x3ca324a1	0.019914927
239	0x3d9ac8c2	0.07557823
240	0x3e6a77ca	0.22897258
241	0xbe55bd69	-0.20873035
242	0xbe06f751	-0.13180281
243	0xbdb48c20	-0.08815789
244	0x3e66d36f	0.22541593
245	0xbd00c49c	-0.0314375
246	0x3caa694d	0.020802164
247	0x3bc6b849	0.006064449
248	0x3dcdeace	0.10054551
249	0x3d96fff8	0.07373041
250	0x3e06f8a2	0.13180783
251	0x3cccae4a	0.024985451
252	0xbd46a40f	-0.048496302
253	0xbd02beb2	-0.031920142
254	0x3d7816a9	0.060568485
255	0x3e49e4c1	0.19716169

network.5.bias f4 [25]
0	0x3d188c38	0.037243098
1	0xbd4e25f5	-0.050329167
2	0x3c8574f1	0.016291114
3	0xbd8c6462	-0.06855084
4	0x3dfe6374	0.12421313
5	0x3d3fb2a4	0.046801224
6	0xbda67aad	-0.08128867
7	0x3d107b81	0.035274033
8	0x3d2ce0ae	0.04220646
9	0x3db10c03	0.08644869
10	0x3ddddb73	0.10832872
11	0xbd658e5e	-0.056043975
12	0x3e01ed05	0.12688072
13	0x3d81f0f6	0.06344788
14	0x3dc902a9	0.098149605
15	0xbdac037b	-0.08399101
16	0x3e1e7f47	0.1547824
17	0x3dd3fe77	0.1035127
18	0xbd8907f5	-0.06690971
19	0xbdedf440	-0.116188526
20	0xbd5ae587	-0.05344155
21	0xbe49c187	-0.19702731
22	0x3d99c593	0.075083874
23	0xbd8f8c42	-0.07009174
24	0xbd38ddd4	-0.045133427

network.8.weight f4 [25, 25]
0	0x3d045281	0.032305244
1	0x3e3d5589	0.1848966
2	0x3df1bb0f	0.11803257
3	0x3e20897a	0.15677443
4	0x3d37dfab	0.04489104
5	0xba2c6678	-0.00065765483
6	0xbdc01068	-0.09378129
7	0x3ea3fee7	0.32030413
8	0x3e34384c	0.175996
9	0x3e3e2b2f	0.1857116
10	0xbc0df185	-0.00866354
11	0x3e0460fc	0.12927622
12	0xbde9441f	-0.11389946
13	0xbe0351e7	-0.12824212
14	0x3deefe1a	0.1166956
15	0x3de17a8c	0.11009702
16	0xbe03092b	-0.12796466
17	0x3df1b779	0.11802573
18	0x3eace783	0.3377038
19	0x3e3b8b42	0.18314841
20	0x3d10298c	0.035195872
21	0x3da83987	0.082140975
22	0x3d774553	0.060368847
23	0xbd8706ec	-0.06593117
24	0x3e5d10da	0.2158846
25	0x3e3ef938	0.18649757
26	0x3c85a9fd	0.016316408
27	0xbd222105	-0.03958227
28	0x3d7204ec	0.059086725
29	0x3d55a63b	0.052160483
30	0x3d86ac8f	0.06575882
31	0x3cd859e7	0.026410056
32	0xbe172eb3	-0.14763908
33	0x3da0b08a	0.07846172
34	0xbdc4b812	-0.09605421
35	0x3d1130f7	0.035447087
36	0x3e3b4026	0.1828619
37	0x3e1d9686	0.15389451
38	0x3e354e11	0.17705561
39	0x3d752b49	0.059855733
40	0x3e499dfb	0.19689171
41	0xbca5e7ba	-0.020252097
42	0xbd95916b	-0.07303127
43	0xbd32b87f	-0.04363298
44	0x3e2ea83b	0.17056362
45	0x3da13d68	0.078730404
46	0x3dfd8f1e	0.12380813
47	0xbdc0cbfa	-0.094139054
48	0x3d8f81dd	0.07007191
49	0x3d011d52	0.031522103
50	0x3e5a2eef	0.21306966
51	0xbd59ec66	-0.053203963
52	0xbd47c461	-0.048771266
53	0x3e25ce4e	0.1619198
54	0xbdb7746e	-0.08957754
55	0x3e68962e	0.22713539
56	0x3e424c75	0.18974479
57	0xbdb5bdb0	-0.08874071
58	0x3d36ad65	0.044598956
59	0x3d1eecc0	0.0388
60	0x3b344cae	0.0027511525
61	0x3e243240	0.16034794
62	0xbd899fbb	-0.06719919
63	0x3e3d3c25	0.18479975
64	0xbe1b3ec4	-0.15160662
65	0x3cf5557c	0.029947989
66	0x3d31092e	0.043221645
67	0xbd07ea31	-0.033182327
68	0x3d6103c6	0.05493524
69	0xbd7e04cf	-0.062016305
70	0x3e1057eb	0.14096038
71	0xbb0c4abf	-0.0021406857
72	0x3db242de	0.0870416
73	0x3e3bdfb5	0.18347056
74	0xbe063f02	-0.13109973
75	0xbe06fc45	-0.1318217
76	0xbcd699e9	-0.026196437
77	0xbe12437f	-0.1428356
78	0x3c9a8da1	0.018866362
79	0x3c8f6666	0.017504882
80	0x3e841fae	0.2580542
81	0x3e772203	0.24134068
82	0xbd965f4a	-0.07342394
83	0x3dae6784	0.08515838
84	0xbdf0fdd5	-0.117671646
85	0xbdaa3572	-0.08310975
86	0x3e896656	0.2683589
87	0x3e5dd06c	0.21661538
88	0xbe0a74c1	-0.135211
89	0x3e0bea14	0.13663512
90	0x3e01a49e	0.12660453
91	0x3d94192c	0.07231364
92	0xbda6deeb	-0.08147987
93	0xbe0d59dd	-0.13803811
94	0x3da69071	0.08133019
95	0xbaeb0722	-0.0017931203
96	0x3e45fed3	0.19335489
97	0x3e360343	0.17774682
98	0x3e0d4414	0.13795501
99	0x3c205a7e	0.0097872
100	0x3e4837fd	0.19552608
101	0x3d1b0fec	0.03785698
102	0x3c7d26c7	0.01545114
103	0xbd3bc038	-0.04583761
104	0x3c8142cf	0.015778927
105	0x3d3b69e4	0.045755282
106	0x3e055100	0.1301918
107	0xbd84841e	-0.06470512
108	0x3e840617	0.25785896
109	0x3e174756	0.14773306
110	0xbc33d043	-0.010974946
111	0x3df29be4	0.1184614
112	0x3c3d7415	0.011563321
113	0x3e26ddde	0.16295573
114	0x3e22e764	0.15908581
115	0xbdc6977b	-0.09696861
116	0xbdbcc3f8	-0.092170656
117	0xbdaf37ca	-0.08555563
118	0xbe3b026d	-0.18262644
119	0xbdb5f572	-0.088847056
120	0xbd83c9a1	-0.06434942
121	0xbd4daeac	-0.05021541
122	0x3e432e2d	0.19060583
123	0x3e8ad7bd	0.2711772
124	0xbc36f83a	-0.01116758
125	0x3d43f90c	0.04784493
126	0x3e85dc90	0.26144838
127	0xbdf766b8	-0.12080139
128	0x3d5ac365	0.053409
129	0xbe252904	-0.16128927
130	0x3e188b10	0.14896798
131	0xbd897bab	-0.06713041
132	0xbe6b8894	-0.23001319
133	0xbbb8e0f8	-0.0056420527
134	0x3dfc6c04	0.1232529
135	0xbd442921	-0.047890786
136	0x3e530742	0.20608237
137	0xbe0d008d	-0.13769741
138	0x3e1b702f	0.15179513
139	0xbaa05f12	-0.0012235364
140	0x3e35ef73	0.17767124
141	0x3e148ad5	0.14506085
142	0xbe465dde	-0.19371745
143	0x3d5947a4	0.053046837
144	0x3e769c06	0.24082956
145	0x3e80ee27	0.25181696
146	0xbe05b723	-0.13058142
147	0xbd8fd52f	-0.070230834
148	0x3e9c9794	0.30584395
149	0xbd92000b	-0.071289144
150	0x3e1ec9cc	0.15506667
151	0x3d822c65	0.06356124
152	0xbcd0de93	-0.025496757
153	0x3deb3f5c	0.11486694
154	0xbdbae562	-0.091257825
155	0x3e69baa5	0.22825105
156	0x3da76649	0.08173806
157	0xbe18bdaf	-0.14916109
158	0x3d5ce705	0.053931255
159	0xbdfd5a03	-0.12370684
160	0x3e1c7175	0.15277655
161	0x3e071b47	0.13193999
162	0x3d78328d	0.060595084
163	0xbdd13ff1	-0.10217274
164	0xbd62b405	-0.05534746
165	0xbcfd621b	-0.03093057
166	0x3e5ff621	0.21871234
167	0xbd4a2dce	-0.04936009
168	0xbe1883a0	-0.14893961
169	0x3e05f03d	0.13079925
170	0xbd304c2f	-0.043041404
171	0x3e4e1efb	0.20129006
172	0x3d8cb2fc	0.06870076
173	0x3b83b84d	0.004019773
174	0x3c8ab506	0.016932022
175	0xbcda4bef	-0.026647536
176	0xbe95b1cf	-0.2923722
177	0x3e1f197e	0.15537068
178	0xbc74ad78	-0.014933936
179	0x3e4ac8b0	0.19803119
180	0x3d3e2482	0.046421535
181	0xbe8f0d4c	-0.27939832
182	0x3e852bfc	0.2601012
183	0xbe3a9605	-0.1822129
184	0xbcf03134	-0.029320337
185	0x3b942a18	0.0045216195
186	0x3cbf1a50	0.023327976
187	0xbe163827	-0.14669858
188	0xbbe78776	-0.0070657087
189	0xbcddb770	-0.027065009
190	0xbdfb3067	-0.122650914
191	0xbd622754	-0.055213287
192	0x3e5ed5cb	0.21761243
193	0x3e991fa5	0.29906955
194	0xbde78fe5	-0.113067426
195	0xbceec7f8	-0.029148087
196	0xbdd99c35	-0.10625497
197	0xbddad78c	-0.106856436
198	0xbde00dc5	-0.10940126
199	0x3e66e71e	0.22549102
200	0xbdfa46f2	-0.12220563
201	0x3da865dc	0.08222553
202	0xbcb69c8c	-0.022291444
203	0x3dd9b698	0.1063053
204	0xbe5fd236	-0.21857533
205	0xbc72c89e	-0.014818339
206	0x3c501e10	0.01270248
207	0x3cb20dad	0.021735037
208	0x3da0baf7	0.07848161
209	0x3e36bf85	0.17846496
210	0xbca9d90a	-0.020733375
211	0x3d052422	0.032505162
212	0xbcda5069	-0.02664967
213	0x3e2fd0af	0.1716945
214	0x3dd91f74	0.10601702
215	0x3d61387f	0.05498552
216	0xbdfb08b1	-0.12257517
217	0xbcfcd392	-0.030862603
218	0x3d55092f	0.05201071
219	0x3e3db125	0.18524607
220	0xbca11dfe	-0.019667622
221	0x3d68b043	0.05680872
222	0x3e575980	0.21030235
223	0x3e9e2a7e	0.30891794
224	0xbe469bf3	-0.19395427
225	0xbd0fce8d	-0.03510909
226	0xbe334669	-0.17507328
227	0x3ea378e6	0.31928176
228	0xbcf421e1	-0.029801311
229	0x3da37637	0.07981532
230	0xbe417d29	-0.18895401
231	0xbe0a6c18	-0.13517797
232	0x3ece4ed8	0.40294528
233	0xbe6860ba	-0.22693148
234	0xbe6b2c91	-0.2296622
235	0xbe707563	-0.2348228
236	0xbd9da830	-0.07698095
237	0x3d92157e	0.071330056
238	0xbe507523	-0.20357184
239	0xbe397253	-0.18110017
240	0xbc8617a5	-0.016368696
241	0x3ca2f7bf	0.019893525
242	0x3e85ddb8	0.2614572
243	0x3de966a5	0.11396531
244	0xbdcd90ae	-0.10037361
245	0xbe48be54	-0.19603854
246	0x3cae5e27	0.02128513
247	0xbe62f7d9	-0.22164859
248	0xbb08aa0e	-0.0020853314
249	0x3e2f83d4	0.17140132
250	0x3d89057a	0.06690498
251	0x3e89dba4	0.26925385
252	0xbd227322	-0.03966058
253	0x3dcc376f	0.099715106
254	0xbd1682d1	-0.03674585
255	0x3e293076	0.16522393

network.8.bias f4 [25]
0	0x3d456156	0.04818853
1	0xbdb9975e	-0.09062074
2	0x3d3e2463	0.04642142
3	0xbdc06218	-0.0939371
4	0xbd5c5cda	-0.053799488
5	0x3e2293b3	0.15876655
6	0x3dabc02e	0.08386265
7	0x3dbf8371	0.09351242
8	0x3ba3ed75	0.0050026723
9	0x3e1295fc	0.14315027
10	0x3cab066e	0.02087709
11	0x3cbba904	0.022907741
12	0x3e4b0d3d	0.19829269
13	0xbd9ab1de	-0.07553457
14	0xbc712a7c	-0.014719602
15	0x3e213559	0.15743007
16	0x3dd149bf	0.10219144
17	0xbdb21aa8	-0.086964905
18	0x3d8d3955	0.06895701
19	0xbd99fb51	-0.07518638
20	0x3cb1e58c	0.021715902
21	0xbd9751e8	-0.07388669
22	0xbda2f815	-0.07957474
23	0xbd78ace4	-0.060711756
24	0x3e057fb4	0.13036996

network.11.weight f4 [25, 25]
0	0x3e299805	0.16561897
1	0xbd034ae8	-0.032053858
2	0x3e3a4e43	0.18193917
3	0x3de18d1b	0.11013242
4	0x3d1c5733	0.038169097
5	0xbd9a9bc4	-0.07549241
6	0x3e4967de	0.19668528
7	0xbce156e2	-0.02750725
8	0x3c35341b	0.011059786
9	0xbd4cb17b	-0.049973946
10	0x3e54ff13	0.20800428
11	0x3e618b76	0.22025856
12	0x3e0e33da	0.13886967
13	0x3e62ba0f	0.22141288
14	0x3e1dd551	0.15413405
15	0xbe3310f5	-0.17486937
16	0xbe125e84	-0.14293867
17	0x3c028101	0.007965327
18	0xbd4b5d8e	-0.049649768
19	0xbda075f3	-0.07834997
20	0x3e36beba	0.17846194
21	0xbda86633	-0.08222618
22	0x3e193902	0.14963153
23	0x3e40f1f9	0.18842305
24	0x3df7c7e2	0.120986715
25	0x3d79a6d8	0.06095013
26	0x3e5dd6c0	0.21663952
27	0x3e792078	0.24328792
28	0x3e1efa70	0.15525222
29	0x3e2ea203	0.1705399
30	0x3d79da9b	0.060999494
31	0xbd50c9d4	-0.05097373
32	0xbe2bf6a6	-0.16793308
33	0x3e8115b8	0.25211883
34	0xbe23a275	-0.15979941
35	0xbd975fd0	-0.07391322
36	0xbcedcff5	-0.029029826
37	0xbc34255c	-0.010995235
38	0x3e0b0500	0.13576126
39	0x3e67c86d	0.2263505
40	0xbe4aa79f	-0.19790505
41	0xbe31d3ec	-0.17365998
42	0xbdb72bb0	-0.089438796
43	0x3e69c4ca	0.22828975
44	0xbd919303	-0.071081184
45	0x3e158a43	0.14603524
46	0xbe900377	-0.28127643
47	0x3e5b40ad	0.2141139
48	0x3d5f9b5d	0.054591525
49	0x3c147660	0.009061426
50	0x3d92b3eb	0.07163223
51	0x3e358bad	0.17729063
52	0xbd9e1c1b	-0.077202044
53	0x3e86d711	0.26335958
54	0x3dfbaae6	0.12288456
55	0x3e55ebb5	0.20890696
56	0x3d4d3496	0.050098978
57	0xbcc71223	-0.02430064
58	0x3e312f4f	0.17303203
59	0xbdbb83ee	-0.09156023
60	0x3e2a82ad	0.16651411
61	0xbdc4ceb6	-0.096097395
62	0x3da42856	0.08015506
63	0x3e0eb0c2	0.13934615
64	0x3d0da220	0.034578443
65	0xbd09371f	-0.033499833
66	0xbd964f03	-0.07339289
67	0xbc890c8d	-0.016729617
68	0x3cdc45b6	0.02688871
69	0x3cf3847c	0.02972626
70	0x3c15494d	0.009111715
71	0xbe5cc95b	-0.21561186
72	0x3e88588f	0.26630065
73	0x3e896047	0.26831266
74	0x3dba88ed	0.09108148
75	0x3a2764fa	0.0006385591
76	0x3dd339b5	0.10313741
77	0x3dd087ec	0.10182175
78	0xbd6cfbcc	-0.05785732
79	0x3e4c0903	0.19925313
80	0x3e491500	0.19636917
81	0x3dca6d18	0.09884089
82	0xbd93ae22	-0.072109476
83	0x3d621fc2	0.055206068
84	0xbddd87f1	-0.108169444
85	0x3e60ca46	0.21952161
86	0x3e16550d	0.14680882
87	0x3e0cdffd	0.1375732
88	0x3ded41c6	0.11584811
89	0x3e498a83	0.19681744
90	0xbb8d1a5b	-0.0043061203
91	0xbe116b66	-0.14201126
92	0x3e658671	0.22414567
93	0x3bfeb6c4	0.007773252
94	0xbd9bd50a	-0.07608993
95	0xbbd9c6be	-0.0066460064
96	0xbd611e27	-0.054960396
97	0x3d13d3f2	0.0360908
98	0x3ced4f0c	0.028968357
99	0x3dbd2006	0.092346236
100	0x3c5dc51e	0.013535766
101	0x3c069c83	0.008216026
102	0x3e47057c	0.19435686
103	0x3e635bab	0.22202937
104	0x3e2fc977	0.17166696
105	0xbdf8abf2	-0.12142171
106	0x3e3410ec	0.1758458
107	0xbd9ded03	-0.07711222
108	0x3e2bce7e	0.1677799
109	0xbd45ab3c	-0.048259005
110	0x3c14e2a1	0.009087236
111	0xbdc6ef37	-0.09713595
112	0x3e0070af	0.12542985
113	0xbc6dbede	-0.014510838
114	0xbd8a132d	-0.06741939
115	0xbd396308	-0.04526046
116	0xbdaa5ae9	-0.08318121
117	0x3dfafc32	0.12255134
118	0xbcdefd1e	-0.027220305
119	0x3ca431ae	0.02004322
120	0xbdaeab4a	-0.085287645
121	0xbdfa71fa	-0.122287706
122	0x3e4627f8	0.19351184
123	0x3e32e440	0.17469883
124	0x3c9ba405	0.018999109
125	0x3b0f6aa7	0.0021883638
126	0xbe206e13	-0.1566699
127	0x3d603eae	0.054747276
128	0xbe3433fb	-0.17597954
129	0x3d928f27	0.071562104
130	0xbca306fe	-0.019900795
131	0xbcaca8e8	-0.021076635
132	0xbd99d60d	-0.0751153
133	0xbe15fcda	-0.14647236
134	0xbe409d67	-0.18810044
135	0x3db06968	0.08613855
136	0xbda6de2b	-0.08147844
137	0xbdcdd81d	-0.10050986
138	0xbe5cb93c	-0.21555036
139	0xbe2931ae	-0.16522858
140	0x3c5bd795	0.013418098
141	0xbdf6a5a2	-0.12043311
142	0x3df9dd1a	0.12200375
143	0xbda61212	-0.081089154
144	0xbccecab1	-0.025243135
145	0xbdf93a5d	-0.12169335
146	0x3e0ffd29	0.14061417
147	0xbe3054b4	-0.17219812
148	0xbcfc8aee	-0.030827966
149	0xbe20e637	-0.1571282
150	0x3da18137	0.07885974
151	0x3dda382a	0.10655244
152	0x3e1a331d	0.1505856
153	0xbda127b2	-0.078688994
154	0x3e5c513d	0.21515365
155	0x3de1ca2a	0.11024888
156	0xbd6f3e39	-0.05840895
157	0xbdd54d99	-0.10415191
158	0x3e242462	0.16029504
159	0xbd4a1a47	-0.049341466
160	0x3d86ad4e	0.06576024
161	0x3e4af16b	0.19818656
162	0xbd5e2a5e	-0.054239623
163	0x3dab88bf	0.083756916
164	0xbd96d8d3	-0.07365575
165	0xbd0147c6	-0.03156259
166	0xbe08b814	-0.1335147
167	0x3daee3a6	0.08539514
168	0xbdaddb19	-0.08489055
169	0x3e41f0a5	0.18939455
170	0x3e078f96	0.13238367
171	0xbe4badc9	-0.19890513
172	0x3e746877	0.23867975
173	0x3d3975a9	0.045278225
174	0xbd8d1539	-0.068888135
175	0xbde2a50b	-0.11066636
176	0x3e53818e	0.2065489
177	0x3e03a536	0.12855992
178	0x3deb5dd9	0.114925094
179	0x3e6f2839	0.23355187
180	0x3e4b3378	0.19843853
181	0x3d8ae447	0.06781822
182	0xbe301f10	-0.1719935
183	0xbd04ae1d	-0.03239261
184	0xbe598b30	-0.21244502
185	0x3e3c8f56	0.18414053
186	0x3e30d109	0.1726724
187	0xbdb2a37c	-0.087225884
188	0xbc41bf26	-0.0118253585
189	0x3e4b566f	0.1985719
190	0x3db8e17e	0.09027384
191	0xbe69c77a	-0.2283
192	0x3dae8ec9	0.08523328
193	0xbd28f954	-0.041253403
194	0xbd2d1f3d	-0.04226612
195	0x3e04d4b2	0.12971762
196	0xbe820684	-0.25395596
197	0xbd8289ae	-0.063739166
198	0xbcafea24	-0.021473952
199	0x3e11cec4	0.14239031
200	0x3da44bee	0.08022295
201	0xbe3768dc	-0.17911094
202	0xbdc8be2d	-0.09801898
203	0x3b4b02bf	0.0030976979
204	0x3d658385	0.05603363
205	0xbd602a95	-0.05472811
206	0xbdcb5c90	-0.09929764
207	0x3e093153	0.13397722
208	0x3c3ed6d4	0.011647899
209	0xbd0ac686	-0.033880733
210	0xbe2e110c	-0.1699869
211	0xbe0c440a	-0.1369783
212	0x3e1d84be	0.15382668
213	0xbdf016f2	-0.117231265
214	0xbdef4f82	-0.11685087
215	0x3e487883	0.19577222
216	0x3eab05af	0.33402774
217	0xba8416b7	-0.001007757
218	0x3d094582	0.033513553
219	0x3c198ead	0.009372395
220	0xbe3e70ee	-0.18597767
221	0x3e4d7f90	0.20068192
222	0xbe92f5de	-0.28703207
223	0xbe24a29c	-0.16077656
224	0x3da22345	0.079168834
225	0x3c5291fa	0.012852186
226	0x3e815b20	0.25264835
227	0x3df795c9	0.12089116
228	0x3e8848a2	0.26617914
229	0xbcdc197d	-0.026867623
230	0x3e09c9c5	0.13455875
231	0x3e25bd6f	0.16185544
232	0xbc90fc4f	-0.017698435
233	0x3e00ba16	0.12570986
234	0xbd825277	-0.06363385
235	0x3e389859	0.18026866
236	0x3d7ac575	0.061223466
237	0x3cbb43df	0.022859512
238	0xbd977858	-0.073960006
239	0xbd935988	-0.07194811
240	0x3ce704ed	0.028200591
241	0x3b061ff3	0.002046582
242	0x3d8decf2	0.06929959
243	0x3e4106c7	0.18850242
244	0xbd38e8f4	-0.045144036
245	0x3e36362f	0.17794107
246	0xbe29825b	-0.16553633
247	0xbd5e9632	-0.054342456
248	0x3dd144ca	0.102181986
249	0x3d6978aa	0.05699984
250	0x3d915b95	0.07097546
251	0xbe69af41	-0.2282076
252	0xbe331ed8	-0.17492235
253	0xbe837421	-0.25674537
254	0xbdde7da3	-0.10863807
255	0xbe4ee012	-0.20202664

network.11.bias f4 [25]
0	0xbd0e1f5f	-0.034697887
1	0x3e10a36f	0.14124845
2	0xbae087c9	-0.0017130311
3	0x3cf35fcd	0.029708767
4	0x3d16346c	0.036671087
5	0xbe63f787	-0.22262393
6	0x3d66fd93	0.05639417
7	0x3e1537a7	0.14572011
8	0x3dbde52c	0.09272227
9	0xbc95926e	-0.0182583
10	0x3deab219	0.11459751
11	0x3db0b99d	0.08629153
12	0xbd935e75	-0.071957506
13	0x3e153923	0.14572577
14	0xbd5bd4ee	-0.053669862
15	0x3cb87b48	0.022519723
16	0x3c0bdbd0	0.008536294
17	0x3d63cb5a	0.055613853
18	0xbd88c3b1	-0.0667795
19	0x3e527665	0.20552976
20	0x3e09704b	0.13421743
21	0xbca7d8b8	-0.020489082
22	0xbdadd42a	-0.08487733
23	0x3d2c0861	0.04200018
24	0x3e46bcf9	0.19408025

network.14.weight f4 [2, 25]
0	0xbda12fb1	-0.078704245
1	0x3db5f5c6	0.08884768
2	0x3e3e904b	0.18609731
3	0x3d7a03f9	0.061038945
4	0x3e6372d1	0.22211768
5	0xbdb18054	-0.08667055
6	0x3db8bad3	0.09020009
7	0x3e5c2d91	0.21501757
8	0xbdec1e05	-0.11529163
9	0x3e554135	0.20825656
10	0xbe96d8a1	-0.2946215
11	0xbe9aec91	-0.3025861
12	0x3e4bfcd7	0.1992067
13	0xbe9e84f0	-0.30960798
14	0x3e76fc06	0.24119577
15	0x3e73b60e	0.23799917
16	0x3db5182c	0.08842501
17	0x3d7534e0	0.05986488
18	0x3e018c50	0.12651181
19	0xbe194470	-0.14967513
20	0xbe9586ee	-0.29204506
21	0x3da36f00	0.07980156
22	0xbe8dc4f1	-0.27689317
23	0x3d998388	0.07495791
24	0xbe02bc63	-0.12767176
25	0xbe6bb3cf	-0.2301781
26	0xbdf1deeb	-0.11810096
27	0x3cb88f34	0.022529222
28	0xbddc28bb	-0.10749956
29	0xbdadbfd5	-0.08483855
30	0x3d12b943	0.03582121
31	0xbdc1a585	-0.094553985
32	0x3d36ea41	0.044656996
33	0x3e802802	0.25030524
34	0x3cde5f3d	0.027145023
35	0x3db1c22e	0.08679615
36	0x3e8634cd	0.2621216
37	0xbe4501b3	-0.1923893
38	0x3e5f281e	0.21792647
39	0xbb9e7c41	-0.0048365896
40	0xbd55b558	-0.052174896
41	0xbe15e708	-0.14638913
42	0xbe13c1d5	-0.1442941
43	0xbd42064d	-0.04736929
44	0x3e87914c	0.2647804
45	0x3e6b0130	0.22949672
46	0xbe1b6ed8	-0.15179002
47	0x3e427d42	0.18993095
48	0xbe0b7a60	-0.13620901
49	0x3e8cd86b	0.27508864

network.14.bias f4 [2]
0	0xbe210f74	-0.15728551
1	0xbe0b94af	-0.13630937
